checkpoints/dqn_128.pth (torch, 343858 bytes, 24 tensors)

fc1.weight f4 [128, 8]
000000 c1 e4 73 39 5c 60 81 3c c9 a2 40 42 70 e8 b3 c0
       0.00023259503 0.015793018 48.15897 -5.6221237
000010 85 4e c4 3b e4 59 ab bc c5 ef a8 40 12 16 97 bf
       0.0059908056 -0.020916887 5.2792687 -1.180361
000020 b7 dd a0 bb c6 68 14 bc 13 80 10 41 06 17 18 42
       -0.004909243 -0.009058183 9.031268 38.022484
000030 73 f6 55 3d 3c 7d f1 3b 34 68 24 41 d8 12 05 41
       0.052236985 0.0073696654 10.27544 8.317101
000040 98 dc a2 bb 55 47 1d 3c a9 09 ac c1 4e b9 5a 41
       -0.0049701445 0.009599526 -21.504717 13.67024
000050 f0 e2 4e 3c 2f ce 91 bd 9a 5c 0c c1 5e f4 2a 41
       0.012627348 -0.071194045 -8.772608 10.68466
000060 23 ed 9a ba b1 c1 22 39 52 68 43 be c7 db 83 c1
       -0.001181994 0.0001552168 -0.19082764 -16.482313
000070 b7 ab 57 3d eb 28 81 3d 7a 3a a3 40 84 69 07 c0
       0.052653994 0.063066326 5.1008883 -2.1158152
000080 ea b4 60 3c 11 ee 9f 39 b9 53 2b c1 61 38 7f c1
       0.013715008 0.00030504217 -10.70794 -15.951264
000090 ce 17 1f be be 34 09 3e be 05 86 c0 0c 58 90 c0
       -0.15536425 0.13399026 -4.188201 -4.510748
0000a0 c3 8e 17 bb 93 b7 38 bc 06 55 0a c1 e7 c5 44 c1
       -0.0023125864 -0.011274236 -8.645758 -12.298316
0000b0 66 51 0e be 27 41 ce 3d b5 fb 9a c0 d0 69 1c bf
       -0.13898239 0.100710206 -4.843226 -0.6109896
0000c0 cb 08 5e 3d d8 a2 bf bd 4d f7 57 41 7f 22 d3 40
       0.054207604 -0.09357232 13.497876 6.597961
0000d0 80 f9 b7 bd 82 95 5e 3e 52 2f b7 40 c5 c3 1c bf
       -0.08983135 0.2173672 5.7245264 -0.6123622
0000e0 92 df 56 bc fe 34 d5 3b ee 5d 97 41 c1 e8 71 c0
       -0.013114827 0.0065065613 18.920864 -3.7798312
0000f0 ff 67 f3 3c a1 c6 08 3d 33 e6 87 40 15 5f 00 bf
       0.029712675 0.033392552 4.2468505 -0.50145084
000100 7a 42 8d bb 0f f5 88 3c c3 77 50 c1 3e 96 2b c1
       -0.004310903 0.016718416 -13.029239 -10.72418
000110 2f 32 36 bc de 37 80 3b e1 df 87 c0 7c 58 ad c0
       -0.011120363 0.00391291 -4.246079 -5.4170513
000120 49 cb 52 bc c4 0c e5 3c a5 53 5b c0 77 8a 5a 3d
       -0.01286585 0.027960189 -3.4269803 0.053354707
000130 ee c8 be bd af b0 20 be ba 01 c6 c0 3e e9 df c0
       -0.09315668 -0.156924 -6.187711 -6.997222
000140 da 39 98 bc 21 14 0d bd 58 c4 50 40 06 68 8a 40
       -0.018582273 -0.034443025 3.2619839 4.325198
000150 59 33 b7 bd 64 eb 88 3e ba 67 ad 40 d2 8b 3d bf
       -0.08945341 0.2674209 5.418912 -0.74041474
000160 f4 3f 8a bc 80 66 35 3d e2 5f 18 c1 8a db 12 c1
       -0.016876198 0.044287205 -9.523409 -9.178598
000170 bd 76 c5 bd 84 1e d2 3d 85 46 bc c0 8e 87 71 c0
       -0.09641788 0.10259727 -5.8836083 -3.7738986
000180 65 d1 20 3c d1 6a cd bb 5b ce 38 c0 25 44 c6 3f
       0.009815549 -0.006268837 -2.887595 1.5489546
000190 bb 93 14 bd bf 9f b9 3b 0e 48 cf 40 9a 59 32 40
       -0.0362737 0.005664795 6.4775457 2.7867188
0001a0 c8 1b e3 3b e7 17 8d bb 51 ae 20 c0 1e dc 5f 41
       0.006930802 -0.004305828 -2.5106394 13.99124
0001b0 fb ef 0e bc 02 d7 4f bd 5c 64 d2 c0 f0 92 ba 3f
       -0.008724208 -0.050742157 -6.574751 1.4576092
0001c0 2a 64 70 bc 15 26 9c 3c 31 33 25 41 fa 66 1c 41
       -0.0146723185 0.019061128 10.324998 9.775141
0001d0 1c d3 83 3d cf a8 21 bd c6 af ad 40 b2 39 87 bf
       0.0643675 -0.03946763 5.4277067 -1.0564482
0001e0 f9 21 10 bc 14 ac 75 3c 06 6e c2 40 56 23 03 41
       -0.008797162 0.01499464 6.0759306 8.196127
0001f0 d3 1b d9 3c 64 cf 18 3d 8e d6 98 40 0c 5a a1 c0
       0.026502525 0.037307158 4.7761908 -5.042242
000200 73 1c 1d 3d 86 38 1b 3b 38 b1 a7 3f 8e 28 d9 40
       0.03835721 0.0023684814 1.3100958 6.7862005
000210 d7 69 00 3e 6f d8 a7 bd a7 7e 80 40 fd 97 64 40
       0.12540375 -0.08195578 4.0154605 3.5717766
000220 ed 41 09 bb 69 98 e0 bb 25 61 0b c2 47 13 ca c1
       -0.0020943836 -0.006854106 -34.844868 -25.259413
000230 e0 60 37 3d e7 05 33 3d 17 92 77 40 16 19 9a c0
       0.04477012 0.0437068 3.8682916 -4.8155622
000240 b3 6f 1f 3c 88 af 86 39 5d f5 a1 c1 47 13 d4 c1
       0.009731221 0.00025689253 -20.244806 -26.509413
000250 b1 1d 2a bd b0 d9 75 bc 3e cf 25 c1 a9 d6 c1 c0
       -0.041532222 -0.015005514 -10.363096 -6.0574536
000260 a3 b0 30 bd c0 db 07 bd 93 1f bd 3f 42 ec e9 bf
       -0.043137204 -0.033168554 1.4775261 -1.8275225
000270 78 d3 9f 3c 90 14 8c be cd 9c 50 c0 c5 9b 9b be
       0.019510016 -0.27359438 -3.2595704 -0.3039228
000280 81 7c 78 3c 83 0f 29 3c 2e e2 00 c1 06 96 4b c1
       0.015166403 0.01031864 -8.05522 -12.724127
000290 79 51 dd bd 70 b3 04 bd 51 46 73 c0 15 44 15 c0
       -0.10806555 -0.032397687 -3.8011668 -2.3322804
0002a0 18 ce 24 3d 7a fe 7a 3c 71 26 37 c1 c9 95 23 c1
       0.04023561 0.015319461 -11.446885 -10.224069
0002b0 ab 52 83 be dc 2d e9 be 66 72 dc bf 8d d2 75 40
       -0.25649008 -0.455428 -1.7222412 3.840976
0002c0 6d 54 48 bc 4e d1 12 39 c9 c2 0a 41 84 11 80 40
       -0.01222716 0.00014001617 8.672555 4.002138
0002d0 58 2b d7 3d 9c ff 6e 3d eb 90 97 40 fb 48 cd be
       0.10506314 0.058349237 4.73644 -0.40094742
0002e0 a2 c7 51 3b a3 ab f2 3c cf ea d6 c0 15 f5 88 c0
       0.003200986 0.029622858 -6.716163 -4.2799172
0002f0 c0 69 cc bc 42 63 b1 3d 6e 49 c3 c0 fd 6f b1 3d
       -0.02495277 0.0866151 -6.1027136 0.08663938
000300 23 03 cf 3b 9b a9 98 3b cc 9d e7 c1 49 4f f4 40
       0.0063175126 0.0046588904 -28.95205 7.6346784
000310 ec b4 18 bd 7e 7b d2 bc e3 db 26 c1 42 65 ef 40
       -0.037281916 -0.025693651 -10.428683 7.4811106
000320 e0 e8 19 3c 2c b4 81 bb 0f 2b 9d c1 20 5c f5 41
       0.009393901 -0.0039582457 -19.646025 30.669983
000330 3f a9 14 bc d6 dd 23 bc d4 b4 52 bf 67 1a c3 3f
       -0.009073555 -0.01000162 -0.8230717 1.5242432
000340 7f 04 d6 38 23 90 13 bb d7 db ab 41 d9 2d c5 41
       0.00010205153 -0.0022516332 21.482344 24.647387
000350 46 cc dc bb 9d 82 fc 3a 1a 7f 8b 40 9e 2f b5 40
       -0.0067382185 0.0019265 4.3592653 5.6620626
000360 b3 b0 a3 3d 71 fe e4 3d be 02 cc bf 0f 65 1d c0
       0.07992687 0.11181343 -1.5938337 -2.4592931
000370 db 56 04 bf f2 44 fb be 0a 66 9c 40 30 94 ed bf
       -0.5169503 -0.4907604 4.887456 -1.8560848
000380 a2 a0 5c bc a0 4f f9 bc ae 5c e1 bf 9d 39 23 bf
       -0.013466032 -0.030433476 -1.7606409 -0.63759786
000390 61 15 20 bd 12 c7 49 be f7 09 bf 40 9f 6a 12 bf
       -0.03908289 -0.19704846 5.9699664 -0.5719394
0003a0 28 1e e3 3a f7 40 9a bb c9 5d da 40 25 84 94 40
       0.0017327713 -0.0047074514 6.8239484 4.641131
0003b0 36 59 e4 3c 66 b8 13 3d a6 0f b0 40 e4 52 18 3b
       0.02787457 0.036064528 5.50191 0.0023242766
0003c0 6b de 17 bd 6a f8 5d bd 46 58 b0 3f f9 a9 81 bf
       -0.03707735 -0.054191984 1.3776939 -1.0129997
0003d0 ab 99 85 3e 4b 1a 98 3e 76 55 65 40 78 d4 de 3f
       0.26093802 0.2970756 3.5833411 1.740859
0003e0 07 f1 c3 3a 0a 13 63 bb ad 00 4d 41 69 1f 01 41
       0.0014949151 -0.00346488 12.812665 8.0701685
0003f0 7d 30 a9 bd f8 77 21 3d c9 cf ad 40 c1 d0 00 bb
       -0.082612015 0.03942105 5.4316144 -0.0019655677

fc1.bias f4 [128]
000000 3c 37 bf 3e e6 19 bc be cc 8a 4d c0 70 1f 4b 3e
       0.37346828 -0.3673851 -3.2115965 0.19836211
000010 46 97 28 c0 81 fc 01 40 58 8a 84 3f c5 f6 8f 3e
       -2.634233 2.0310366 1.0354719 0.28117958
000020 fd 66 9f bf 32 28 da be ce 85 b0 3e 60 cf 1c c0
       -1.2453305 -0.42608792 0.34477085 -2.4501572
000030 f1 f3 c8 bf 9e b2 c2 3e 07 5e 85 3e 42 00 53 40
       -1.5699445 0.380269 0.260483 3.2968907
000040 17 42 e3 3f ee 58 b0 be 1c d9 3c bf b0 76 2f bd
       1.7754544 -0.34442848 -0.7376878 -0.0428378
000050 8c 6a e2 bc ad 1b 39 c1 f2 5e 27 c0 e2 0f c5 be
       -0.027638696 -11.569257 -2.61517 -0.3848868
000060 54 95 95 c0 09 89 16 bf 46 ad c9 be 90 76 a9 bf
       -4.6744785 -0.5880285 -0.3939001 -1.3239307
000070 26 7a 50 3f 1f ac b9 3e 14 af da bd 5d 85 0d 3f
       0.81436384 0.3626413 -0.10677925 0.5528162
000080 f6 fc a2 bf 3a c3 b3 3e 86 2f cf 3e c2 ac 46 bf
       -1.2733448 0.35109884 0.40465945 -0.7760736
000090 8b 6b 1f c0 69 f3 f4 be 3e d5 e3 bf 44 17 97 bf
       -2.490939 -0.47841957 -1.7799451 -1.1803975
0000a0 aa 58 06 40 8f 62 e7 be 8a 6e 02 bf d5 98 75 41
       2.0991616 -0.45192382 -0.5094992 15.3498125
0000b0 e9 67 92 bf 5b b6 4f bf 8e bf 04 3f e1 0c 24 c0
       -1.1437961 -0.8113763 0.5185479 -2.563286
0000c0 c2 01 17 c0 5e 8f fa 3f 7a ea 13 c0 df 2c a9 3d
       -2.3594823 1.9575002 -2.3111863 0.082605116
0000d0 2a 78 d0 bf 30 cc 88 bf 5d 3c 03 3f c4 b2 d4 bd
       -1.6286671 -1.0687313 0.5126398 -0.10385659
0000e0 ff 04 cb 3e 07 36 42 be 2b 2c 59 be ac b3 e4 3f
       0.3965225 -0.18965922 -0.21208255 1.7867332
0000f0 b4 b7 5b c0 d7 ca 3b c0 80 a5 14 41 bd bf cc be
       -3.4330873 -2.9342554 9.290405 -0.39990035
000100 53 86 97 bf bd 81 7f be 6f ef 07 40 3d cf a2 be
       -1.1837867 -0.24951835 2.1239889 -0.31798735
000110 53 0e 0e c1 88 92 36 3e b9 4c 90 bd 4e c2 08 c0
       -8.878497 0.17829335 -0.07045884 -2.1368594
000120 bf 39 2f c0 74 11 15 c0 48 01 97 3e 1e 3b 6c 3e
       -2.7378995 -2.3291903 0.29493165 0.23069426
000130 52 4f 9f be 15 0b f8 bf 91 6d f2 c0 3c 04 0e bf
       -0.31115204 -1.9378382 -7.575875 -0.5547521
000140 9f c4 8f be 76 cc 69 be 8e 85 d6 c0 b0 93 15 3f
       -0.28079697 -0.22831902 -6.703803 0.5842848
000150 c0 36 ee bf ad 1f 94 40 63 a0 48 be 98 c8 8a 41
       -1.8610458 4.6288667 -0.19592433 17.347946
000160 f6 88 db 3f 18 41 4d 3e ba 96 8d 3f 0f 18 9a bf
       1.7151172 0.20044363 1.1061623 -1.2038592
000170 bb bb 84 be b3 c9 f7 bd 88 f1 1c 41 e4 4a 5d 3f
       -0.25924477 -0.12099018 9.808968 0.864424
000180 dc d9 92 40 2e 71 89 3f 64 15 17 40 a5 1b 27 3f
       4.589094 1.0737665 2.3606806 0.6527656
000190 9d c2 20 3f 8e c3 6f 40 31 8d b0 c0 d6 28 04 bf
       0.62796956 3.7463107 -5.5172353 -0.5162481
0001a0 48 27 2b c0 64 ec d1 bd a0 1f bc be 45 61 a7 bf
       -2.6742725 -0.10250166 -0.36742878 -1.3076559
0001b0 c4 8a 3d c0 84 9b 09 c0 21 88 0e c0 9a 0b 9f be
       -2.9615946 -2.150117 -2.2270586 -0.3106354
0001c0 09 f0 42 c0 ad 15 28 c0 8e 71 26 c0 2e 60 8b bf
       -3.0459006 -2.626323 -2.6006808 -1.0888727
0001d0 87 86 e7 be 54 ae b4 bf 58 f3 c5 bf 66 ea 68 c0
       -0.45219824 -1.4115701 -1.5464888 -3.6393065
0001e0 be 72 bf be 83 4b 72 c0 87 ef c6 be 06 d9 bb be
       -0.3739223 -3.7858589 -0.3885462 -0.36689013
0001f0 9d 5e fc 3e 24 1d 94 3d d2 5b 56 c0 2b ac a4 bf
       0.49290934 0.07232121 -3.3493543 -1.2865041

fc2.weight f4 [128, 128]
000000 f0 03 f7 40 20 ce 0d c0 61 9f ca c0 c1 4b 9c c0
       7.7192307 -2.2157059 -6.3319554 -4.8842473
000010 2d 8c b2 bf 60 1e d7 3e 9d ea 59 3f 30 39 2a 40
       -1.3949028 0.42015362 0.85123616 2.6597404
000020 d5 48 8a bf e0 5a 1b c0 4b 2a ac 3f f1 48 e3 bf
       -1.0803477 -2.4274216 1.3450407 -1.7756635
000030 4f 37 81 bf 31 20 d4 bf d8 cd 3d be 56 53 30 40
       -1.0095004 -1.6572324 -0.18535554 2.7550864
000040 4f 98 6f 3f ba 41 86 bf 4b fa 35 c0 86 9d 73 3e
       0.9359178 -1.0488808 -2.8434017 0.23790559
000050 ca a4 36 be f4 6b 9c bf 57 14 64 c0 5b 62 09 3f
       -0.178363 -1.2220445 -3.5637414 0.53665704
000060 64 93 22 c1 4c ac d7 c0 72 f1 26 40 f9 fd 43 bf
       -10.160984 -6.7397823 2.6084867 -0.76559407
000070 80 4a 89 be 44 47 7f 3e e2 b4 25 3f d0 99 5e 40
       -0.2681465 0.2492953 0.6472913 3.478138
000080 57 9a 87 bd 96 dd 90 3f 6f 1f df 3f de 98 05 3f
       -0.06621235 1.1317623 1.7431468 0.5218638
000090 9d d5 8f 3e 79 a6 a4 c0 47 49 59 c0 c9 fb 11 3f
       0.28092661 -5.1453214 -3.3950975 0.5702482
0000a0 34 35 e7 3e e9 64 9e bf be 68 34 3f 47 ed a7 3f
       0.45157778 -1.2374545 0.70472324 1.3119286
0000b0 e7 2d 4a c0 30 61 3e 40 ca 08 e5 3f 45 f7 58 be
       -3.1590517 2.9746819 1.7893307 -0.21188076
0000c0 6f b9 27 c2 88 64 10 c0 fb 2e c8 c0 3c 40 87 be
       -41.931087 -2.256136 -6.255735 -0.26416194
0000d0 c3 66 4d c1 2f 70 04 bf 8a 2b 74 40 86 c3 b5 3f
       -12.837588 -0.5173368 3.8151574 1.4200294
0000e0 47 da df c1 64 3f e6 3f c8 89 f2 bf f5 8d f8 be
       -27.98158 1.7988095 -1.8948298 -0.48545805
0000f0 9c 50 b0 c0 42 15 af be 9b c0 06 40 76 97 d5 be
       -5.50984 -0.34195906 2.1055057 -0.41717118
000100 c9 c4 01 c0 c1 c8 16 bf a9 90 0e 40 9b 89 17 c0
       -2.0276358 -0.58900076 2.2275794 -2.3677738
000110 fe 11 b3 be 26 bb 1c bf 2d f1 3b c1 68 ba 3e bf
       -0.34974664 -0.61223066 -11.746381 -0.74503183
000120 53 0a 65 c2 1e c7 f1 bd 05 4a 97 3f 41 73 c6 3f
       -57.260082 -0.11805557 1.1819464 1.5503923
000130 67 f2 a0 bf 33 b1 91 c0 32 a7 82 3f 35 59 27 c0
       -1.2573975 -4.552881 1.0207274 -2.6148198
000140 dd c8 ba 3d f5 bf ee c1 f2 92 4c c0 0f 3f b3 bf
       0.09120343 -29.843729 -3.1964688 -1.4003619
000150 0f 10 cf bf cd 7a 57 3f 58 49 d9 40 c8 8a 60 bf
       -1.6176776 0.84171754 6.790203 -0.87711763
000160 c1 71 b9 3f ca 75 6a 40 75 96 ba bd 81 9d 8c 3e
       1.448784 3.6634393 -0.09110729 0.27463916
000170 6a 13 af bf b7 6d b1 3d fc 94 a2 3f 78 cb 54 40
       -1.36778 0.086635046 1.2701716 3.3249187
000180 ad 1b 93 3d bb 1b 0d c0 c2 e3 8e 3e f2 dc 76 c0
       0.07183013 -2.2048175 0.2790814 -3.8572354
000190 ad 35 42 40 06 78 29 40 e3 a1 b7 c0 c1 0a c1 bf
       3.034526 2.6479506 -5.7385116 -1.5081407
0001a0 36 c4 ac c1 2d 22 2f c0 ed ec db 40 93 55 56 c0
       -21.595806 -2.736461 6.8726716 -3.348973
0001b0 5b 91 e8 c0 47 e2 fe be b7 5e ab bf 72 38 2b bf
       -7.2677436 -0.4978201 -1.338828 -0.66883004
0001c0 c5 26 62 c1 00 01 96 be 84 8a ce bf ee 59 8a bf
       -14.134465 -0.29297638 -1.6136022 -1.0808694
0001d0 fd 19 2d c0 70 5b b9 c0 c6 11 13 c1 97 52 35 c1
       -2.7047112 -5.792412 -9.191839 -11.332664
0001e0 3a 8c bc bc bc df 60 3f c4 05 8e 3f cf bb 09 40
       -0.023016084 0.8784139 1.109551 2.152088
0001f0 86 62 09 c0 39 e9 81 bf fd 2a bd c1 4a ca c7 3f
       -2.1466384 -1.0149299 -23.64599 1.5608609
000200 d0 dd c3 3f b6 c0 d7 3f b2 d5 21 3d 9e 28 c5 3f
       1.5302067 1.6855686 0.039510436 1.540302
000210 dd c9 32 c1 07 36 f6 3e d5 a4 62 bf ec ab 63 bf
       -11.174283 0.48088095 -0.88532764 -0.88934207
000220 ff 1c 92 bf 5a 0e 72 3f d8 b6 2e 3e 9b 4e a6 c0
       -1.1415099 0.9455315 0.17061937 -5.1970954
000230 9f 8b db bf 88 0a c0 be 10 80 ce 3f 26 d0 fe be
       -1.7151984 -0.37508035 1.6132832 -0.4976818
000240 f7 e9 17 bf 7b bb c3 be 39 0c a0 3e b5 c9 4f bf
       -0.5934138 -0.38228974 0.31259325 -0.81167156
000250 03 60 1d bf f5 ea 26 c0 46 9b d5 c0 7b a0 ea 3c
       -0.6147463 -2.6080906 -6.6752043 0.028640976
000260 34 11 0d 40 68 14 89 c0 1f 3f 96 bf d7 a1 9d 3f
       2.204175 -4.283741 -1.1738013 1.2315015
000270 f9 11 05 bf c0 0a db 3f 51 35 21 c0 bb 24 06 c0
       -0.5198055 1.7112656 -2.5188792 -2.0959918
000280 f2 9d 1a be 63 c3 06 bf 35 69 fd 3e 60 ba 35 bc
       -0.15099314 -0.52641886 0.4949433 -0.011091799
000290 c9 78 40 bf e5 73 45 40 35 2e 10 3e 20 4b 4c c0
       -0.75184304 3.0851986 0.14080127 -3.1920853
0002a0 43 33 5d c0 79 0e 0f be 9c 95 6c 3e 12 c5 a6 3f
       -3.4562538 -0.13970365 0.23103946 1.3028891
0002b0 c9 99 b0 3f 6a d2 7f bf 7e 3a 13 3e f8 6d 25 c0
       1.3796932 -0.9993044 0.14377782 -2.584837
0002c0 bb 6f 17 c1 96 db ef bf aa 25 b7 c0 51 4c 23 bf
       -9.464778 -1.8738887 -5.7233477 -0.63788325
0002d0 f5 42 83 be c2 5d 2e 3f 81 10 17 40 3d 8f f6 3f
       -0.25637022 0.68111813 2.3603823 1.9262463
0002e0 63 41 b5 c0 0b a9 57 bd 6c ae 36 3e ec ce ff bf
       -5.664232 -0.052651446 0.17839974 -1.9985023
0002f0 af a3 bb c0 0e a4 66 c0 3a 37 0a 3f 4a c1 87 be
       -5.863731 -3.603763 0.5399052 -0.26514655
000300 9b 85 e5 bf eb c3 2a 3f d8 58 36 bf 72 bc d7 be
       -1.7931398 0.667052 -0.71229315 -0.4213596
000310 e1 59 ec bf d4 e1 5f bf 47 c2 86 40 c7 36 3a c0
       -1.8464929 -0.8745396 4.2112155 -2.9095933
000320 46 54 7d c1 81 bf 57 bf 6a 29 c8 3d 44 ac 3c be
       -15.833075 -0.84276587 0.09773524 -0.18425089
000330 75 4d 38 3f c9 df da 3e 15 80 62 3f 69 0a 06 bc
       0.7199319 0.4274886 0.8847669 -0.008181193
000340 a5 ad 00 3f 78 e5 cc bf 1b 2c 0f bf 76 e6 14 3f
       0.5026496 -1.6007528 -0.55926675 0.58164155
000350 12 a7 ff 3f 14 aa 39 bf 06 65 6e 3e 52 9b c9 3e
       1.9972861 -0.72525144 0.23280725 0.39376312
000360 2a 87 69 c0 76 16 e0 3f d5 43 f2 3e e6 b9 49 c0
       -3.6488748 1.7506855 0.47317377 -3.1519713
000370 bf 9b 3b bf 12 c3 da 3f a7 79 06 be 8b 6a 70 bf
       -0.73284525 1.7090781 -0.13132344 -0.9391257
000380 86 2a 9e bf 05 cc e8 bc 65 6c d2 bf e0 e1 65 3e
       -1.2356727 -0.028417597 -1.6439329 0.22449446
000390 0f 93 89 3f 73 8a bd bf 0c 3d 50 c0 2d 65 bb 3e
       1.0748004 -1.4807876 -3.253726 0.36600628
0003a0 cd ed 1d c1 4b 62 e5 bf 1a b0 e1 3e 5c 80 96 3f
       -9.870557 -1.7920622 0.44079667 1.1757922
0003b0 31 05 f1 3f f2 e9 91 c0 0a ae 1d 3f 4d 72 00 c0
       1.8829709 -4.559808 0.6159369 -2.0069764
0003c0 e2 34 a7 c0 dc f2 3a c0 a9 ba 73 c0 8a 77 14 40
       -5.2252054 -2.921073 -3.8082678 2.319796
0003d0 51 d1 e3 be 5e bf 70 bf da 2e 16 40 fc 2f 4b bc
       -0.44495633 -0.94042003 2.3466096 -0.012401577
0003e0 f7 bb fd 3f 6e 51 37 bf 9f fa 96 bf 56 40 04 c0
       1.9822987 -0.71608627 -1.1795233 -2.0664268
0003f0 41 d1 c6 3c 45 78 48 3d 85 fe 96 c0 65 a1 bb 3b
       0.024269702 0.048942823 -4.7185693 0.005726027

fc2.bias f4 [128]
000000 05 3c 7e c0 82 6a e3 40 58 71 1a be 13 1b 84 3e
       -3.9724133 7.1067514 -0.150823 0.25801906
000010 b7 83 cb be 72 c0 57 40 00 3d 08 41 b2 a4 af 3e
       -0.39748928 3.371121 8.514893 0.3430534
000020 2e 44 0b 41 13 3f 3a c0 86 45 af bd 7d e0 b5 bf
       8.704145 -2.9100997 -0.085581824 -1.4209133
000030 99 b6 7d c0 8b 64 0e c0 53 61 75 3e 7f ee 24 c0
       -3.9642699 -2.2248867 0.23962907 -2.5770566
000040 86 1b 03 3f 42 75 e1 3e 2f 51 c3 3f b5 0c e3 3e
       0.5121387 0.44034773 1.525915 0.44345632
000050 b5 46 5c c0 90 d7 82 40 9e dc a1 3e 9d 09 b1 40
       -3.4418156 4.088814 0.3161363 5.5324235
000060 5c 01 94 bf e4 36 c7 3e e0 34 94 3e 68 74 0c 3e
       -1.1562915 0.38909066 0.2894659 0.1371628
000070 39 9a 10 c0 4f a4 d4 40 13 bb 54 3e 15 36 35 3e
       -2.259413 6.645057 0.20774488 0.17696412
000080 fc ce 8f be d8 2a 03 3b 4d 3b a1 40 e3 d5 45 40
       -0.28087604 0.002001455 5.038489 3.0911796
000090 da b5 03 be 4d a2 8a be 8f 07 b4 bf a1 06 fa bf
       -0.1286234 -0.2707695 -1.4064807 -1.9533273
0000a0 f5 53 40 c0 40 cc 5d c0 5c a8 a5 bf 48 ff 8f c0
       -3.0051243 -3.4655914 -1.2942004 -4.4999123
0000b0 05 22 36 c0 96 26 29 be 48 e1 c7 be ac 6d f6 3e
       -2.8458264 -0.16518626 -0.39039063 0.48130548
0000c0 43 3a b3 3e a9 82 ba 3e 82 70 2e 3d 5a 0d 87 bd
       0.35005388 0.3642781 0.042587765 -0.065943435
0000d0 8f 0f 0d 3c bb 87 c0 3e c3 d3 ab c0 5e 3c 1c 41
       0.0086096665 0.37603554 -5.3696 9.764738
0000e0 c0 a3 fc 3e ed 9d 7c 3f e8 9a 51 40 6d 31 00 3d
       0.4934368 0.98678476 3.2750797 0.031297136
0000f0 46 64 ec 3e 2e f1 3b 40 36 2f ce be 43 4e 9d 40
       0.46170253 2.9365954 -0.40270394 4.9158034
000100 4a d8 f3 3f 2a fa 55 be 73 b7 f5 40 31 9b bd 3e
       1.9050381 -0.20896211 7.6786437 0.37032464
000110 01 46 6b 3e fa 0a c3 be 1f 01 ab 3e 15 0f a6 be
       0.22975923 -0.38094312 0.33399293 -0.32433382
000120 42 25 2f c0 bd 8b 59 be 78 55 f9 40 85 30 9c bd
       -2.736649 -0.21244712 7.791683 -0.07626442
000130 86 bf 99 3e 70 3a e5 40 68 f3 86 40 00 58 49 bf
       0.30028933 7.1633835 4.2172127 -0.786499
000140 f3 a3 9b 3e f1 c5 fa 3d 07 60 92 c0 50 d1 24 40
       0.3039852 0.122447856 -4.574222 2.5752754
000150 7d 93 fe 3f 42 47 a9 3e 1b e8 a8 be aa c1 43 be
       1.988876 0.33062178 -0.32989582 -0.19116846
000160 b5 ac c3 bd 88 d7 b3 be a6 40 ad 3f 71 dc c2 3d
       -0.095544256 -0.35125375 1.3535354 0.09514702
000170 99 6c 3e 3f b3 fd 2c c0 6a db cf bf 4f 54 17 c0
       0.74384457 -2.7029846 -1.6238835 -2.3645208
000180 34 26 d3 40 6a df 76 3e fc 82 0c 41 a3 dc 29 3f
       6.5984135 0.24108663 8.781979 0.6635229
000190 b9 f9 b7 40 c4 8d 60 c0 ca a1 23 3f c9 72 a4 be
       5.7492337 -3.5086527 0.63918746 -0.32118824
0001a0 66 35 71 c0 9a 9e aa be 21 ae e7 40 d6 da 88 40
       -3.7688842 -0.33324128 7.240006 4.2767134
0001b0 27 41 08 bf 58 24 e1 40 1b f3 01 bd b0 79 88 3e
       -0.53224415 7.0356865 -0.031725984 0.2665534
0001c0 bb 93 04 3f 35 32 8e bf 41 a7 c7 3a 29 1a f5 3d
       0.5178792 -1.1109072 0.0015232341 0.1196788
0001d0 f3 37 27 40 b6 94 e5 3e 88 bb 70 bc 35 43 d7 3e
       2.6127899 0.4484002 -0.014693148 0.42043462
0001e0 b5 2f b1 40 63 1f 32 40 9b 6f c4 3f 1b f7 e8 3e
       5.5370736 2.7831657 1.5346559 0.45501027
0001f0 08 ba 18 c0 57 e0 34 40 b4 8c 5f bf 3e 68 80 be
       -2.3863544 2.8261926 -0.8732407 -0.2507953

fc3.weight f4 [25, 128]
000000 c6 73 1e be 10 7e 2f 3f 30 dc 90 3f cc 2c 5c bf
       -0.15473852 0.6855173 1.1317196 -0.86005855
000010 99 dc 2c 3f 95 5e 28 3f d0 19 03 40 42 5c 01 c0
       0.67524105 0.6576932 2.0484505 -2.021256
000020 de 8d 98 3f 36 9c a4 be b3 be 8a 3e c2 8a 9e be
       1.1918294 -0.3215043 0.27098617 -0.3096524
000030 e3 8c 15 be b9 98 9b be a6 83 a3 bf ee bf 97 bf
       -0.14604525 -0.30389956 -1.2774551 -1.1855447
000040 42 78 32 3f 2b 02 83 40 25 15 cd 3e 10 74 d8 3e
       0.6971475 4.0940146 0.40055194 0.4227605
000050 d2 d4 c9 bd 83 f7 fc 3e 20 78 a5 3f 98 7b 6d bc
       -0.098550454 0.49407586 1.2927284 -0.014494799
000060 ff 4a 2f 3d b5 28 87 3f b6 7e 19 c0 f6 82 91 3f
       0.04279613 1.0559298 -2.3983588 1.1368091
000070 dc f2 00 3f 3e e3 15 3e e6 22 42 40 2e 28 ed 3f
       0.50370574 0.14637467 3.03338 1.8527887
000080 52 c1 48 bf 87 03 75 bd a6 9c b9 3e fc e0 81 3e
       -0.78419983 -0.059817817 0.36252326 0.25366962
000090 7c 5a 03 3e a1 9d 8f bf a4 6f 90 3d 7c ca 76 be
       0.12827486 -1.121998 0.07052544 -0.24100679
0000a0 64 43 55 be 3d 09 03 bf 3d bc 91 be c2 68 dc be
       -0.20826489 -0.5118597 -0.28463927 -0.43048674
0000b0 63 dd 0b 3d 83 75 77 bf 6a b8 60 be 84 01 18 40
       0.034146678 -0.96663684 -0.21945348 2.3750925
0000c0 55 aa 28 3e 68 4d 23 3f 8c 35 ac 3f c6 12 bd 3f
       0.16471227 0.6378999 1.3453841 1.4771354
0000d0 95 17 84 bf aa b6 86 40 a6 d8 7f be 9d c4 04 3f
       -1.0319697 4.209798 -0.24984989 0.5186251
0000e0 19 ab 0d c0 2b f4 9d bf fd 69 f5 3e cf b2 f4 bf
       -2.213568 -1.2340139 0.47932425 -1.9117068
0000f0 c0 e6 d8 3e 34 64 bc 3e cc 7b 93 3f 93 f2 25 3e
       0.42363548 0.367952 1.1522155 0.16205816
000100 6a ce 83 bf 2b 03 c9 3f be 0a 88 3e fe 1f e3 bf
       -1.0297368 1.5704092 0.26570696 -1.7744138
000110 b5 08 8d 3f bb 40 91 bf e7 b5 b7 3f 2a 3e 15 bf
       1.1018282 -1.1347879 1.4352387 -0.5829798
000120 e4 34 09 3e bb c7 27 3f d4 a3 e5 3e 86 96 21 c0
       0.13399082 0.6553914 0.44851553 -2.5248122
000130 cf 01 ac be 6b e5 e0 3f fa 17 28 3f 49 cf 84 3e
       -0.3359513 1.7570013 0.65661585 0.25939396
000140 c5 8a 46 bf f6 eb 2f 40 a1 30 6d 3f 7d 0c c9 3e
       -0.77555496 2.748777 0.92652327 0.3926734
000150 a5 55 2e 3e 7f bd 6b 40 6b 6f 37 bf 32 35 7f bf
       0.17024858 3.683441 -0.71654385 -0.99690545
000160 9d 9b 17 c0 d7 7c 30 3f 6e 5e 9d 3f 47 29 1d bf
       -2.368873 0.6894049 1.2294443 -0.6139111
000170 a3 96 f8 bf 6b cb 27 3f 77 62 8c be 29 5e a6 be
       -1.9420971 0.65544766 -0.27418873 -0.32493713
000180 5e 07 af 3f 34 39 5f be 3c 0e 3e 3e 6f 00 87 3f
       1.3674123 -0.21799165 0.18560117 1.0547007
000190 b0 6d a5 3e 16 f8 00 be e9 14 17 40 35 86 00 bf
       0.32310247 -0.12594637 2.3606513 -0.50204784
0001a0 64 cc e1 be 88 7b d8 bf 39 4d 41 3e bf 1b 36 3e
       -0.4410125 -1.6912699 0.18877114 0.17784022
0001b0 1b 06 f4 bf d4 4b 15 3f be fe 9a 3d 82 32 69 be
       -1.9064363 0.5831883 0.075681195 -0.22773173
0001c0 72 3a f4 3f f0 eb 26 bd 08 91 03 c0 6e 33 08 40
       1.9080336 -0.04075235 -2.055727 2.128139
0001d0 cc cb 88 3f 5c 55 08 40 4d ea b5 bf b5 2a 75 bf
       1.0687194 2.13021 -1.4212128 -0.9576829
0001e0 f7 57 b2 3e c5 d1 cb 3e 6f 6d 1d 3f 40 ab 4d bf
       0.34832737 0.3980848 0.6149511 -0.8033943
0001f0 4f 01 53 bf 54 8d 1a 40 ba 6f 14 c0 e0 a1 c4 bf
       -0.8242387 2.414876 -2.3193192 -1.53619
000200 63 bf 2e be f0 07 20 3f 1c d7 3b 3f ab 9d 68 bf
       -0.17065196 0.6251211 0.73375106 -0.9086558
000210 b4 ca 8e be 83 74 4c 3f df bc f3 3f 60 8f cf bf
       -0.27889025 0.7986528 1.9042014 -1.621563
000220 b8 6b 9c 3f 34 0f 30 be ad a6 70 bf 34 f8 a5 be
       1.2220373 -0.171933 -0.9400433 -0.32415926
000230 71 1a 56 be bf 25 5a be 10 bb 04 c0 ab c1 c1 bf
       -0.20908524 -0.21303461 -2.0739174 -1.5137228
000240 02 91 0b 3f 67 34 2e 40 48 51 d1 3e 43 7a 39 3f
       0.5451814 2.7219484 0.40882325 0.7245218
000250 2a 95 b9 bd 7b d2 c8 3e 01 bf c4 3f 32 2f 22 bd
       -0.09061654 0.39223084 1.537079 -0.03959579
000260 da 92 9a 3e 94 06 81 3f f9 42 10 c0 15 db f2 3f
       0.30190164 1.0080132 -2.2540877 1.8973109
000270 00 63 9e bf e0 3b 04 3e f6 df 4c 40 c7 30 cd 3f
       -1.2373962 0.12913465 3.2011695 1.6030511
000280 db 3a 77 bf 9b b7 55 bd 66 52 f6 3e a7 c6 c9 3d
       -0.9657418 -0.052177053 0.4810974 0.09852343
000290 91 95 3f bd 51 6b 61 bf 70 91 32 bd f4 81 6e be
       -0.046773497 -0.88054377 -0.04359573 -0.2329176
0002a0 23 59 51 be 39 b4 f3 be 0c 89 8e be fb b1 ad be
       -0.20444159 -0.47598436 -0.27838933 -0.3392485
0002b0 58 48 06 bb b6 c9 1d bf 0d 70 34 bf a9 41 14 40
       -0.0020489898 -0.6163591 -0.70483476 2.3165076
0002c0 c9 4f 64 be 6c 8e 61 bf e3 92 ce 3f c7 0c 92 3f
       -0.2229606 -0.88107944 1.6138576 1.1410149
0002d0 c5 38 b4 bf 35 02 3c 3f 67 89 a9 3d 6b 0c 0b 3f
       -1.4079825 0.7344087 0.082781605 0.54315823
0002e0 8a 7c a3 3f a1 af 64 be bb d3 0c 3f a0 5d c5 bf
       1.2772381 -0.22332622 0.55010575 -1.5419197
0002f0 24 3a e7 3f 24 51 bd 3e 50 9a 52 3f 78 47 8a 3e
       1.8064618 0.36975968 0.8226671 0.2700765
000300 4d e1 a7 bf 76 d0 f8 3e b3 d7 a5 3e d2 bf 9e 3e
       -1.3115631 0.48596543 0.32391128 0.31005722
000310 38 7c 43 3f dc b5 08 3e 9b 99 d9 3f 8a 52 8c bf
       0.7636142 0.13350624 1.7000002 -1.0962689
000320 58 ef 91 bd 31 9c ad 3f 5b ea 84 3e f8 e6 09 c0
       -0.07125729 1.3563291 0.2596005 -2.1547222
000330 4a ee 1f bf fb b3 ca 3f 44 87 01 3f 1a e6 40 3e
       -0.62472975 1.5836176 0.50597024 0.18837777
000340 32 37 82 be fe 0f d2 3f c4 b0 40 3f 6d 41 7c 3e
       -0.25432736 1.641113 0.7526972 0.24634333
000350 46 99 8e 3e e5 31 fc 3f 00 ee a2 bf 14 e0 67 bd
       0.27851313 1.9702727 -1.2728882 -0.056610182
000360 67 c5 25 c0 43 01 44 bf ad ac bb 3e b4 c7 cc bf
       -2.5901735 -0.76564425 0.3665518 -1.5998445
000370 47 00 90 bf 00 de 38 3f 19 39 e2 be cc 2e 7c be
       -1.1250085 0.72213745 -0.44184187 -0.24627227
000380 80 00 9e 3f e3 f0 67 bf fa b4 c3 3d 09 1e ca 3e
       1.2343903 -0.9060194 0.09556003 0.3947604
000390 4f e4 b5 3e ca ee 82 be 7f ed 14 40 56 68 36 bf
       0.35525748 -0.25572807 2.3269956 -0.71252954
0003a0 4d 5f 8c be c6 b9 61 bf 52 37 52 3e 63 fe 81 3e
       -0.2741646 -0.8817409 0.20528916 0.25389394
0003b0 f6 9e 31 bf da 36 55 3f 73 77 15 bd 4e 3e 55 3f
       -0.6938318 0.8328682 -0.03649087 0.83298194
0003c0 f8 2d 0f 40 b0 63 0e be 31 8d e2 bf 0c 65 1a 40
       2.2371807 -0.13905215 -1.7699338 2.4124174
0003d0 31 4d cb 3f b2 0b 26 40 cd 6b 59 bf 1d 49 88 bd
       1.5882932 2.5944638 -0.84930116 -0.0665457
0003e0 ba ee 50 3e 15 43 85 3e 53 90 1b 3f e0 c2 52 bf
       0.20403567 0.26027742 0.60767096 -0.82328606
0003f0 19 a5 41 bf f4 5e b7 3f 53 15 db be 1c da b5 bf
       -0.75642544 1.4325852 -0.42789707 -1.4207187

fc3.bias f4 [25]
000000 5f 60 aa c1 af 04 dc 40 f3 99 0b 41 af 3c 04 41
       -21.297056 6.8755717 8.725085 8.264815
000010 e6 38 fb 40 db 87 ed 40 fb 15 6b 41 39 e2 46 41
       7.8506956 7.422834 14.692866 12.43023
000020 74 e1 30 41 75 3e 22 41 6d a8 05 41 b2 04 40 41
       11.055042 10.140248 8.35362 12.001146
000030 9c 83 69 41 6a 6e 57 41 79 b5 22 41 28 30 05 41
       14.594631 13.464457 10.169305 8.324257
000040 99 ba 2f 41 b8 26 56 41 98 78 52 41 af 7c 24 41
       10.983056 13.384453 13.154442 10.28044
000050 39 19 fe 40 3b 33 16 41 b0 73 29 41 00 6e 24 41
       7.940579 9.387507 10.590744 10.276855
000060 74 93 06 41
       8.410999

fc1.weight f4 [128, 8]
000000 c1 e4 73 39 5c 60 81 3c c9 a2 40 42 70 e8 b3 c0
       0.00023259503 0.015793018 48.15897 -5.6221237
000010 85 4e c4 3b e4 59 ab bc c5 ef a8 40 12 16 97 bf
       0.0059908056 -0.020916887 5.2792687 -1.180361
000020 b7 dd a0 bb c6 68 14 bc 13 80 10 41 06 17 18 42
       -0.004909243 -0.009058183 9.031268 38.022484
000030 73 f6 55 3d 3c 7d f1 3b 34 68 24 41 d8 12 05 41
       0.052236985 0.0073696654 10.27544 8.317101
000040 98 dc a2 bb 55 47 1d 3c a9 09 ac c1 4e b9 5a 41
       -0.0049701445 0.009599526 -21.504717 13.67024
000050 f0 e2 4e 3c 2f ce 91 bd 9a 5c 0c c1 5e f4 2a 41
       0.012627348 -0.071194045 -8.772608 10.68466
000060 23 ed 9a ba b1 c1 22 39 52 68 43 be c7 db 83 c1
       -0.001181994 0.0001552168 -0.19082764 -16.482313
000070 b7 ab 57 3d eb 28 81 3d 7a 3a a3 40 84 69 07 c0
       0.052653994 0.063066326 5.1008883 -2.1158152
000080 ea b4 60 3c 11 ee 9f 39 b9 53 2b c1 61 38 7f c1
       0.013715008 0.00030504217 -10.70794 -15.951264
000090 ce 17 1f be be 34 09 3e be 05 86 c0 0c 58 90 c0
       -0.15536425 0.13399026 -4.188201 -4.510748
0000a0 c3 8e 17 bb 93 b7 38 bc 06 55 0a c1 e7 c5 44 c1
       -0.0023125864 -0.011274236 -8.645758 -12.298316
0000b0 66 51 0e be 27 41 ce 3d b5 fb 9a c0 d0 69 1c bf
       -0.13898239 0.100710206 -4.843226 -0.6109896
0000c0 cb 08 5e 3d d8 a2 bf bd 4d f7 57 41 7f 22 d3 40
       0.054207604 -0.09357232 13.497876 6.597961
0000d0 80 f9 b7 bd 82 95 5e 3e 52 2f b7 40 c5 c3 1c bf
       -0.08983135 0.2173672 5.7245264 -0.6123622
0000e0 92 df 56 bc fe 34 d5 3b ee 5d 97 41 c1 e8 71 c0
       -0.013114827 0.0065065613 18.920864 -3.7798312
0000f0 ff 67 f3 3c a1 c6 08 3d 33 e6 87 40 15 5f 00 bf
       0.029712675 0.033392552 4.2468505 -0.50145084
000100 7a 42 8d bb 0f f5 88 3c c3 77 50 c1 3e 96 2b c1
       -0.004310903 0.016718416 -13.029239 -10.72418
000110 2f 32 36 bc de 37 80 3b e1 df 87 c0 7c 58 ad c0
       -0.011120363 0.00391291 -4.246079 -5.4170513
000120 49 cb 52 bc c4 0c e5 3c a5 53 5b c0 77 8a 5a 3d
       -0.01286585 0.027960189 -3.4269803 0.053354707
000130 ee c8 be bd af b0 20 be ba 01 c6 c0 3e e9 df c0
       -0.09315668 -0.156924 -6.187711 -6.997222
000140 da 39 98 bc 21 14 0d bd 58 c4 50 40 06 68 8a 40
       -0.018582273 -0.034443025 3.2619839 4.325198
000150 59 33 b7 bd 64 eb 88 3e ba 67 ad 40 d2 8b 3d bf
       -0.08945341 0.2674209 5.418912 -0.74041474
000160 f4 3f 8a bc 80 66 35 3d e2 5f 18 c1 8a db 12 c1
       -0.016876198 0.044287205 -9.523409 -9.178598
000170 bd 76 c5 bd 84 1e d2 3d 85 46 bc c0 8e 87 71 c0
       -0.09641788 0.10259727 -5.8836083 -3.7738986
000180 65 d1 20 3c d1 6a cd bb 5b ce 38 c0 25 44 c6 3f
       0.009815549 -0.006268837 -2.887595 1.5489546
000190 bb 93 14 bd bf 9f b9 3b 0e 48 cf 40 9a 59 32 40
       -0.0362737 0.005664795 6.4775457 2.7867188
0001a0 c8 1b e3 3b e7 17 8d bb 51 ae 20 c0 1e dc 5f 41
       0.006930802 -0.004305828 -2.5106394 13.99124
0001b0 fb ef 0e bc 02 d7 4f bd 5c 64 d2 c0 f0 92 ba 3f
       -0.008724208 -0.050742157 -6.574751 1.4576092
0001c0 2a 64 70 bc 15 26 9c 3c 31 33 25 41 fa 66 1c 41
       -0.0146723185 0.019061128 10.324998 9.775141
0001d0 1c d3 83 3d cf a8 21 bd c6 af ad 40 b2 39 87 bf
       0.0643675 -0.03946763 5.4277067 -1.0564482
0001e0 f9 21 10 bc 14 ac 75 3c 06 6e c2 40 56 23 03 41
       -0.008797162 0.01499464 6.0759306 8.196127
0001f0 d3 1b d9 3c 64 cf 18 3d 8e d6 98 40 0c 5a a1 c0
       0.026502525 0.037307158 4.7761908 -5.042242
000200 73 1c 1d 3d 86 38 1b 3b 38 b1 a7 3f 8e 28 d9 40
       0.03835721 0.0023684814 1.3100958 6.7862005
000210 d7 69 00 3e 6f d8 a7 bd a7 7e 80 40 fd 97 64 40
       0.12540375 -0.08195578 4.0154605 3.5717766
000220 ed 41 09 bb 69 98 e0 bb 25 61 0b c2 47 13 ca c1
       -0.0020943836 -0.006854106 -34.844868 -25.259413
000230 e0 60 37 3d e7 05 33 3d 17 92 77 40 16 19 9a c0
       0.04477012 0.0437068 3.8682916 -4.8155622
000240 b3 6f 1f 3c 88 af 86 39 5d f5 a1 c1 47 13 d4 c1
       0.009731221 0.00025689253 -20.244806 -26.509413
000250 b1 1d 2a bd b0 d9 75 bc 3e cf 25 c1 a9 d6 c1 c0
       -0.041532222 -0.015005514 -10.363096 -6.0574536
000260 a3 b0 30 bd c0 db 07 bd 93 1f bd 3f 42 ec e9 bf
       -0.043137204 -0.033168554 1.4775261 -1.8275225
000270 78 d3 9f 3c 90 14 8c be cd 9c 50 c0 c5 9b 9b be
       0.019510016 -0.27359438 -3.2595704 -0.3039228
000280 81 7c 78 3c 83 0f 29 3c 2e e2 00 c1 06 96 4b c1
       0.015166403 0.01031864 -8.05522 -12.724127
000290 79 51 dd bd 70 b3 04 bd 51 46 73 c0 15 44 15 c0
       -0.10806555 -0.032397687 -3.8011668 -2.3322804
0002a0 18 ce 24 3d 7a fe 7a 3c 71 26 37 c1 c9 95 23 c1
       0.04023561 0.015319461 -11.446885 -10.224069
0002b0 ab 52 83 be dc 2d e9 be 66 72 dc bf 8d d2 75 40
       -0.25649008 -0.455428 -1.7222412 3.840976
0002c0 6d 54 48 bc 4e d1 12 39 c9 c2 0a 41 84 11 80 40
       -0.01222716 0.00014001617 8.672555 4.002138
0002d0 58 2b d7 3d 9c ff 6e 3d eb 90 97 40 fb 48 cd be
       0.10506314 0.058349237 4.73644 -0.40094742
0002e0 a2 c7 51 3b a3 ab f2 3c cf ea d6 c0 15 f5 88 c0
       0.003200986 0.029622858 -6.716163 -4.2799172
0002f0 c0 69 cc bc 42 63 b1 3d 6e 49 c3 c0 fd 6f b1 3d
       -0.02495277 0.0866151 -6.1027136 0.08663938
000300 23 03 cf 3b 9b a9 98 3b cc 9d e7 c1 49 4f f4 40
       0.0063175126 0.0046588904 -28.95205 7.6346784
000310 ec b4 18 bd 7e 7b d2 bc e3 db 26 c1 42 65 ef 40
       -0.037281916 -0.025693651 -10.428683 7.4811106
000320 e0 e8 19 3c 2c b4 81 bb 0f 2b 9d c1 20 5c f5 41
       0.009393901 -0.0039582457 -19.646025 30.669983
000330 3f a9 14 bc d6 dd 23 bc d4 b4 52 bf 67 1a c3 3f
       -0.009073555 -0.01000162 -0.8230717 1.5242432
000340 7f 04 d6 38 23 90 13 bb d7 db ab 41 d9 2d c5 41
       0.00010205153 -0.0022516332 21.482344 24.647387
000350 46 cc dc bb 9d 82 fc 3a 1a 7f 8b 40 9e 2f b5 40
       -0.0067382185 0.0019265 4.3592653 5.6620626
000360 b3 b0 a3 3d 71 fe e4 3d be 02 cc bf 0f 65 1d c0
       0.07992687 0.11181343 -1.5938337 -2.4592931
000370 db 56 04 bf f2 44 fb be 0a 66 9c 40 30 94 ed bf
       -0.5169503 -0.4907604 4.887456 -1.8560848
000380 a2 a0 5c bc a0 4f f9 bc ae 5c e1 bf 9d 39 23 bf
       -0.013466032 -0.030433476 -1.7606409 -0.63759786
000390 61 15 20 bd 12 c7 49 be f7 09 bf 40 9f 6a 12 bf
       -0.03908289 -0.19704846 5.9699664 -0.5719394
0003a0 28 1e e3 3a f7 40 9a bb c9 5d da 40 25 84 94 40
       0.0017327713 -0.0047074514 6.8239484 4.641131
0003b0 36 59 e4 3c 66 b8 13 3d a6 0f b0 40 e4 52 18 3b
       0.02787457 0.036064528 5.50191 0.0023242766
0003c0 6b de 17 bd 6a f8 5d bd 46 58 b0 3f f9 a9 81 bf
       -0.03707735 -0.054191984 1.3776939 -1.0129997
0003d0 ab 99 85 3e 4b 1a 98 3e 76 55 65 40 78 d4 de 3f
       0.26093802 0.2970756 3.5833411 1.740859
0003e0 07 f1 c3 3a 0a 13 63 bb ad 00 4d 41 69 1f 01 41
       0.0014949151 -0.00346488 12.812665 8.0701685
0003f0 7d 30 a9 bd f8 77 21 3d c9 cf ad 40 c1 d0 00 bb
       -0.082612015 0.03942105 5.4316144 -0.0019655677

fc1.bias f4 [128]
000000 3c 37 bf 3e e6 19 bc be cc 8a 4d c0 70 1f 4b 3e
       0.37346828 -0.3673851 -3.2115965 0.19836211
000010 46 97 28 c0 81 fc 01 40 58 8a 84 3f c5 f6 8f 3e
       -2.634233 2.0310366 1.0354719 0.28117958
000020 fd 66 9f bf 32 28 da be ce 85 b0 3e 60 cf 1c c0
       -1.2453305 -0.42608792 0.34477085 -2.4501572
000030 f1 f3 c8 bf 9e b2 c2 3e 07 5e 85 3e 42 00 53 40
       -1.5699445 0.380269 0.260483 3.2968907
000040 17 42 e3 3f ee 58 b0 be 1c d9 3c bf b0 76 2f bd
       1.7754544 -0.34442848 -0.7376878 -0.0428378
000050 8c 6a e2 bc ad 1b 39 c1 f2 5e 27 c0 e2 0f c5 be
       -0.027638696 -11.569257 -2.61517 -0.3848868
000060 54 95 95 c0 09 89 16 bf 46 ad c9 be 90 76 a9 bf
       -4.6744785 -0.5880285 -0.3939001 -1.3239307
000070 26 7a 50 3f 1f ac b9 3e 14 af da bd 5d 85 0d 3f
       0.81436384 0.3626413 -0.10677925 0.5528162
000080 f6 fc a2 bf 3a c3 b3 3e 86 2f cf 3e c2 ac 46 bf
       -1.2733448 0.35109884 0.40465945 -0.7760736
000090 8b 6b 1f c0 69 f3 f4 be 3e d5 e3 bf 44 17 97 bf
       -2.490939 -0.47841957 -1.7799451 -1.1803975
0000a0 aa 58 06 40 8f 62 e7 be 8a 6e 02 bf d5 98 75 41
       2.0991616 -0.45192382 -0.5094992 15.3498125
0000b0 e9 67 92 bf 5b b6 4f bf 8e bf 04 3f e1 0c 24 c0
       -1.1437961 -0.8113763 0.5185479 -2.563286
0000c0 c2 01 17 c0 5e 8f fa 3f 7a ea 13 c0 df 2c a9 3d
       -2.3594823 1.9575002 -2.3111863 0.082605116
0000d0 2a 78 d0 bf 30 cc 88 bf 5d 3c 03 3f c4 b2 d4 bd
       -1.6286671 -1.0687313 0.5126398 -0.10385659
0000e0 ff 04 cb 3e 07 36 42 be 2b 2c 59 be ac b3 e4 3f
       0.3965225 -0.18965922 -0.21208255 1.7867332
0000f0 b4 b7 5b c0 d7 ca 3b c0 80 a5 14 41 bd bf cc be
       -3.4330873 -2.9342554 9.290405 -0.39990035
000100 53 86 97 bf bd 81 7f be 6f ef 07 40 3d cf a2 be
       -1.1837867 -0.24951835 2.1239889 -0.31798735
000110 53 0e 0e c1 88 92 36 3e b9 4c 90 bd 4e c2 08 c0
       -8.878497 0.17829335 -0.07045884 -2.1368594
000120 bf 39 2f c0 74 11 15 c0 48 01 97 3e 1e 3b 6c 3e
       -2.7378995 -2.3291903 0.29493165 0.23069426
000130 52 4f 9f be 15 0b f8 bf 91 6d f2 c0 3c 04 0e bf
       -0.31115204 -1.9378382 -7.575875 -0.5547521
000140 9f c4 8f be 76 cc 69 be 8e 85 d6 c0 b0 93 15 3f
       -0.28079697 -0.22831902 -6.703803 0.5842848
000150 c0 36 ee bf ad 1f 94 40 63 a0 48 be 98 c8 8a 41
       -1.8610458 4.6288667 -0.19592433 17.347946
000160 f6 88 db 3f 18 41 4d 3e ba 96 8d 3f 0f 18 9a bf
       1.7151172 0.20044363 1.1061623 -1.2038592
000170 bb bb 84 be b3 c9 f7 bd 88 f1 1c 41 e4 4a 5d 3f
       -0.25924477 -0.12099018 9.808968 0.864424
000180 dc d9 92 40 2e 71 89 3f 64 15 17 40 a5 1b 27 3f
       4.589094 1.0737665 2.3606806 0.6527656
000190 9d c2 20 3f 8e c3 6f 40 31 8d b0 c0 d6 28 04 bf
       0.62796956 3.7463107 -5.5172353 -0.5162481
0001a0 48 27 2b c0 64 ec d1 bd a0 1f bc be 45 61 a7 bf
       -2.6742725 -0.10250166 -0.36742878 -1.3076559
0001b0 c4 8a 3d c0 84 9b 09 c0 21 88 0e c0 9a 0b 9f be
       -2.9615946 -2.150117 -2.2270586 -0.3106354
0001c0 09 f0 42 c0 ad 15 28 c0 8e 71 26 c0 2e 60 8b bf
       -3.0459006 -2.626323 -2.6006808 -1.0888727
0001d0 87 86 e7 be 54 ae b4 bf 58 f3 c5 bf 66 ea 68 c0
       -0.45219824 -1.4115701 -1.5464888 -3.6393065
0001e0 be 72 bf be 83 4b 72 c0 87 ef c6 be 06 d9 bb be
       -0.3739223 -3.7858589 -0.3885462 -0.36689013
0001f0 9d 5e fc 3e 24 1d 94 3d d2 5b 56 c0 2b ac a4 bf
       0.49290934 0.07232121 -3.3493543 -1.2865041

fc2.weight f4 [128, 128]
000000 f0 03 f7 40 20 ce 0d c0 61 9f ca c0 c1 4b 9c c0
       7.7192307 -2.2157059 -6.3319554 -4.8842473
000010 2d 8c b2 bf 60 1e d7 3e 9d ea 59 3f 30 39 2a 40
       -1.3949028 0.42015362 0.85123616 2.6597404
000020 d5 48 8a bf e0 5a 1b c0 4b 2a ac 3f f1 48 e3 bf
       -1.0803477 -2.4274216 1.3450407 -1.7756635
000030 4f 37 81 bf 31 20 d4 bf d8 cd 3d be 56 53 30 40
       -1.0095004 -1.6572324 -0.18535554 2.7550864
000040 4f 98 6f 3f ba 41 86 bf 4b fa 35 c0 86 9d 73 3e
       0.9359178 -1.0488808 -2.8434017 0.23790559
000050 ca a4 36 be f4 6b 9c bf 57 14 64 c0 5b 62 09 3f
       -0.178363 -1.2220445 -3.5637414 0.53665704
000060 64 93 22 c1 4c ac d7 c0 72 f1 26 40 f9 fd 43 bf
       -10.160984 -6.7397823 2.6084867 -0.76559407
000070 80 4a 89 be 44 47 7f 3e e2 b4 25 3f d0 99 5e 40
       -0.2681465 0.2492953 0.6472913 3.478138
000080 57 9a 87 bd 96 dd 90 3f 6f 1f df 3f de 98 05 3f
       -0.06621235 1.1317623 1.7431468 0.5218638
000090 9d d5 8f 3e 79 a6 a4 c0 47 49 59 c0 c9 fb 11 3f
       0.28092661 -5.1453214 -3.3950975 0.5702482
0000a0 34 35 e7 3e e9 64 9e bf be 68 34 3f 47 ed a7 3f
       0.45157778 -1.2374545 0.70472324 1.3119286
0000b0 e7 2d 4a c0 30 61 3e 40 ca 08 e5 3f 45 f7 58 be
       -3.1590517 2.9746819 1.7893307 -0.21188076
0000c0 6f b9 27 c2 88 64 10 c0 fb 2e c8 c0 3c 40 87 be
       -41.931087 -2.256136 -6.255735 -0.26416194
0000d0 c3 66 4d c1 2f 70 04 bf 8a 2b 74 40 86 c3 b5 3f
       -12.837588 -0.5173368 3.8151574 1.4200294
0000e0 47 da df c1 64 3f e6 3f c8 89 f2 bf f5 8d f8 be
       -27.98158 1.7988095 -1.8948298 -0.48545805
0000f0 9c 50 b0 c0 42 15 af be 9b c0 06 40 76 97 d5 be
       -5.50984 -0.34195906 2.1055057 -0.41717118
000100 c9 c4 01 c0 c1 c8 16 bf a9 90 0e 40 9b 89 17 c0
       -2.0276358 -0.58900076 2.2275794 -2.3677738
000110 fe 11 b3 be 26 bb 1c bf 2d f1 3b c1 68 ba 3e bf
       -0.34974664 -0.61223066 -11.746381 -0.74503183
000120 53 0a 65 c2 1e c7 f1 bd 05 4a 97 3f 41 73 c6 3f
       -57.260082 -0.11805557 1.1819464 1.5503923
000130 67 f2 a0 bf 33 b1 91 c0 32 a7 82 3f 35 59 27 c0
       -1.2573975 -4.552881 1.0207274 -2.6148198
000140 dd c8 ba 3d f5 bf ee c1 f2 92 4c c0 0f 3f b3 bf
       0.09120343 -29.843729 -3.1964688 -1.4003619
000150 0f 10 cf bf cd 7a 57 3f 58 49 d9 40 c8 8a 60 bf
       -1.6176776 0.84171754 6.790203 -0.87711763
000160 c1 71 b9 3f ca 75 6a 40 75 96 ba bd 81 9d 8c 3e
       1.448784 3.6634393 -0.09110729 0.27463916
000170 6a 13 af bf b7 6d b1 3d fc 94 a2 3f 78 cb 54 40
       -1.36778 0.086635046 1.2701716 3.3249187
000180 ad 1b 93 3d bb 1b 0d c0 c2 e3 8e 3e f2 dc 76 c0
       0.07183013 -2.2048175 0.2790814 -3.8572354
000190 ad 35 42 40 06 78 29 40 e3 a1 b7 c0 c1 0a c1 bf
       3.034526 2.6479506 -5.7385116 -1.5081407
0001a0 36 c4 ac c1 2d 22 2f c0 ed ec db 40 93 55 56 c0
       -21.595806 -2.736461 6.8726716 -3.348973
0001b0 5b 91 e8 c0 47 e2 fe be b7 5e ab bf 72 38 2b bf
       -7.2677436 -0.4978201 -1.338828 -0.66883004
0001c0 c5 26 62 c1 00 01 96 be 84 8a ce bf ee 59 8a bf
       -14.134465 -0.29297638 -1.6136022 -1.0808694
0001d0 fd 19 2d c0 70 5b b9 c0 c6 11 13 c1 97 52 35 c1
       -2.7047112 -5.792412 -9.191839 -11.332664
0001e0 3a 8c bc bc bc df 60 3f c4 05 8e 3f cf bb 09 40
       -0.023016084 0.8784139 1.109551 2.152088
0001f0 86 62 09 c0 39 e9 81 bf fd 2a bd c1 4a ca c7 3f
       -2.1466384 -1.0149299 -23.64599 1.5608609
000200 d0 dd c3 3f b6 c0 d7 3f b2 d5 21 3d 9e 28 c5 3f
       1.5302067 1.6855686 0.039510436 1.540302
000210 dd c9 32 c1 07 36 f6 3e d5 a4 62 bf ec ab 63 bf
       -11.174283 0.48088095 -0.88532764 -0.88934207
000220 ff 1c 92 bf 5a 0e 72 3f d8 b6 2e 3e 9b 4e a6 c0
       -1.1415099 0.9455315 0.17061937 -5.1970954
000230 9f 8b db bf 88 0a c0 be 10 80 ce 3f 26 d0 fe be
       -1.7151984 -0.37508035 1.6132832 -0.4976818
000240 f7 e9 17 bf 7b bb c3 be 39 0c a0 3e b5 c9 4f bf
       -0.5934138 -0.38228974 0.31259325 -0.81167156
000250 03 60 1d bf f5 ea 26 c0 46 9b d5 c0 7b a0 ea 3c
       -0.6147463 -2.6080906 -6.6752043 0.028640976
000260 34 11 0d 40 68 14 89 c0 1f 3f 96 bf d7 a1 9d 3f
       2.204175 -4.283741 -1.1738013 1.2315015
000270 f9 11 05 bf c0 0a db 3f 51 35 21 c0 bb 24 06 c0
       -0.5198055 1.7112656 -2.5188792 -2.0959918
000280 f2 9d 1a be 63 c3 06 bf 35 69 fd 3e 60 ba 35 bc
       -0.15099314 -0.52641886 0.4949433 -0.011091799
000290 c9 78 40 bf e5 73 45 40 35 2e 10 3e 20 4b 4c c0
       -0.75184304 3.0851986 0.14080127 -3.1920853
0002a0 43 33 5d c0 79 0e 0f be 9c 95 6c 3e 12 c5 a6 3f
       -3.4562538 -0.13970365 0.23103946 1.3028891
0002b0 c9 99 b0 3f 6a d2 7f bf 7e 3a 13 3e f8 6d 25 c0
       1.3796932 -0.9993044 0.14377782 -2.584837
0002c0 bb 6f 17 c1 96 db ef bf aa 25 b7 c0 51 4c 23 bf
       -9.464778 -1.8738887 -5.7233477 -0.63788325
0002d0 f5 42 83 be c2 5d 2e 3f 81 10 17 40 3d 8f f6 3f
       -0.25637022 0.68111813 2.3603823 1.9262463
0002e0 63 41 b5 c0 0b a9 57 bd 6c ae 36 3e ec ce ff bf
       -5.664232 -0.052651446 0.17839974 -1.9985023
0002f0 af a3 bb c0 0e a4 66 c0 3a 37 0a 3f 4a c1 87 be
       -5.863731 -3.603763 0.5399052 -0.26514655
000300 9b 85 e5 bf eb c3 2a 3f d8 58 36 bf 72 bc d7 be
       -1.7931398 0.667052 -0.71229315 -0.4213596
000310 e1 59 ec bf d4 e1 5f bf 47 c2 86 40 c7 36 3a c0
       -1.8464929 -0.8745396 4.2112155 -2.9095933
000320 46 54 7d c1 81 bf 57 bf 6a 29 c8 3d 44 ac 3c be
       -15.833075 -0.84276587 0.09773524 -0.18425089
000330 75 4d 38 3f c9 df da 3e 15 80 62 3f 69 0a 06 bc
       0.7199319 0.4274886 0.8847669 -0.008181193
000340 a5 ad 00 3f 78 e5 cc bf 1b 2c 0f bf 76 e6 14 3f
       0.5026496 -1.6007528 -0.55926675 0.58164155
000350 12 a7 ff 3f 14 aa 39 bf 06 65 6e 3e 52 9b c9 3e
       1.9972861 -0.72525144 0.23280725 0.39376312
000360 2a 87 69 c0 76 16 e0 3f d5 43 f2 3e e6 b9 49 c0
       -3.6488748 1.7506855 0.47317377 -3.1519713
000370 bf 9b 3b bf 12 c3 da 3f a7 79 06 be 8b 6a 70 bf
       -0.73284525 1.7090781 -0.13132344 -0.9391257
000380 86 2a 9e bf 05 cc e8 bc 65 6c d2 bf e0 e1 65 3e
       -1.2356727 -0.028417597 -1.6439329 0.22449446
000390 0f 93 89 3f 73 8a bd bf 0c 3d 50 c0 2d 65 bb 3e
       1.0748004 -1.4807876 -3.253726 0.36600628
0003a0 cd ed 1d c1 4b 62 e5 bf 1a b0 e1 3e 5c 80 96 3f
       -9.870557 -1.7920622 0.44079667 1.1757922
0003b0 31 05 f1 3f f2 e9 91 c0 0a ae 1d 3f 4d 72 00 c0
       1.8829709 -4.559808 0.6159369 -2.0069764
0003c0 e2 34 a7 c0 dc f2 3a c0 a9 ba 73 c0 8a 77 14 40
       -5.2252054 -2.921073 -3.8082678 2.319796
0003d0 51 d1 e3 be 5e bf 70 bf da 2e 16 40 fc 2f 4b bc
       -0.44495633 -0.94042003 2.3466096 -0.012401577
0003e0 f7 bb fd 3f 6e 51 37 bf 9f fa 96 bf 56 40 04 c0
       1.9822987 -0.71608627 -1.1795233 -2.0664268
0003f0 41 d1 c6 3c 45 78 48 3d 85 fe 96 c0 65 a1 bb 3b
       0.024269702 0.048942823 -4.7185693 0.005726027

fc2.bias f4 [128]
000000 05 3c 7e c0 82 6a e3 40 58 71 1a be 13 1b 84 3e
       -3.9724133 7.1067514 -0.150823 0.25801906
000010 b7 83 cb be 72 c0 57 40 00 3d 08 41 b2 a4 af 3e
       -0.39748928 3.371121 8.514893 0.3430534
000020 2e 44 0b 41 13 3f 3a c0 86 45 af bd 7d e0 b5 bf
       8.704145 -2.9100997 -0.085581824 -1.4209133
000030 99 b6 7d c0 8b 64 0e c0 53 61 75 3e 7f ee 24 c0
       -3.9642699 -2.2248867 0.23962907 -2.5770566
000040 86 1b 03 3f 42 75 e1 3e 2f 51 c3 3f b5 0c e3 3e
       0.5121387 0.44034773 1.525915 0.44345632
000050 b5 46 5c c0 90 d7 82 40 9e dc a1 3e 9d 09 b1 40
       -3.4418156 4.088814 0.3161363 5.5324235
000060 5c 01 94 bf e4 36 c7 3e e0 34 94 3e 68 74 0c 3e
       -1.1562915 0.38909066 0.2894659 0.1371628
000070 39 9a 10 c0 4f a4 d4 40 13 bb 54 3e 15 36 35 3e
       -2.259413 6.645057 0.20774488 0.17696412
000080 fc ce 8f be d8 2a 03 3b 4d 3b a1 40 e3 d5 45 40
       -0.28087604 0.002001455 5.038489 3.0911796
000090 da b5 03 be 4d a2 8a be 8f 07 b4 bf a1 06 fa bf
       -0.1286234 -0.2707695 -1.4064807 -1.9533273
0000a0 f5 53 40 c0 40 cc 5d c0 5c a8 a5 bf 48 ff 8f c0
       -3.0051243 -3.4655914 -1.2942004 -4.4999123
0000b0 05 22 36 c0 96 26 29 be 48 e1 c7 be ac 6d f6 3e
       -2.8458264 -0.16518626 -0.39039063 0.48130548
0000c0 43 3a b3 3e a9 82 ba 3e 82 70 2e 3d 5a 0d 87 bd
       0.35005388 0.3642781 0.042587765 -0.065943435
0000d0 8f 0f 0d 3c bb 87 c0 3e c3 d3 ab c0 5e 3c 1c 41
       0.0086096665 0.37603554 -5.3696 9.764738
0000e0 c0 a3 fc 3e ed 9d 7c 3f e8 9a 51 40 6d 31 00 3d
       0.4934368 0.98678476 3.2750797 0.031297136
0000f0 46 64 ec 3e 2e f1 3b 40 36 2f ce be 43 4e 9d 40
       0.46170253 2.9365954 -0.40270394 4.9158034
000100 4a d8 f3 3f 2a fa 55 be 73 b7 f5 40 31 9b bd 3e
       1.9050381 -0.20896211 7.6786437 0.37032464
000110 01 46 6b 3e fa 0a c3 be 1f 01 ab 3e 15 0f a6 be
       0.22975923 -0.38094312 0.33399293 -0.32433382
000120 42 25 2f c0 bd 8b 59 be 78 55 f9 40 85 30 9c bd
       -2.736649 -0.21244712 7.791683 -0.07626442
000130 86 bf 99 3e 70 3a e5 40 68 f3 86 40 00 58 49 bf
       0.30028933 7.1633835 4.2172127 -0.786499
000140 f3 a3 9b 3e f1 c5 fa 3d 07 60 92 c0 50 d1 24 40
       0.3039852 0.122447856 -4.574222 2.5752754
000150 7d 93 fe 3f 42 47 a9 3e 1b e8 a8 be aa c1 43 be
       1.988876 0.33062178 -0.32989582 -0.19116846
000160 b5 ac c3 bd 88 d7 b3 be a6 40 ad 3f 71 dc c2 3d
       -0.095544256 -0.35125375 1.3535354 0.09514702
000170 99 6c 3e 3f b3 fd 2c c0 6a db cf bf 4f 54 17 c0
       0.74384457 -2.7029846 -1.6238835 -2.3645208
000180 34 26 d3 40 6a df 76 3e fc 82 0c 41 a3 dc 29 3f
       6.5984135 0.24108663 8.781979 0.6635229
000190 b9 f9 b7 40 c4 8d 60 c0 ca a1 23 3f c9 72 a4 be
       5.7492337 -3.5086527 0.63918746 -0.32118824
0001a0 66 35 71 c0 9a 9e aa be 21 ae e7 40 d6 da 88 40
       -3.7688842 -0.33324128 7.240006 4.2767134
0001b0 27 41 08 bf 58 24 e1 40 1b f3 01 bd b0 79 88 3e
       -0.53224415 7.0356865 -0.031725984 0.2665534
0001c0 bb 93 04 3f 35 32 8e bf 41 a7 c7 3a 29 1a f5 3d
       0.5178792 -1.1109072 0.0015232341 0.1196788
0001d0 f3 37 27 40 b6 94 e5 3e 88 bb 70 bc 35 43 d7 3e
       2.6127899 0.4484002 -0.014693148 0.42043462
0001e0 b5 2f b1 40 63 1f 32 40 9b 6f c4 3f 1b f7 e8 3e
       5.5370736 2.7831657 1.5346559 0.45501027
0001f0 08 ba 18 c0 57 e0 34 40 b4 8c 5f bf 3e 68 80 be
       -2.3863544 2.8261926 -0.8732407 -0.2507953
