checkpoints/dqn_32.pth (torch, 44338 bytes, 24 tensors)

fc1.weight f4 [32, 8]
0	0x3cdb06e5	0.026736686
1	0x3c5b6576	0.013390889
2	0xc0904186	-4.5079985
3	0x4099bcc7	4.804294
4	0x3c95f6d4	0.018306173
5	0xbd5bc6d2	-0.053656407
6	0xc0f26d0d	-7.575812
7	0x3fb8f8a0	1.4450874
8	0xbb8457c4	-0.004038783
9	0xbc0d182d	-0.008611721
10	0xc187ff68	-16.99971
11	0x41ad9f2c	21.70272
12	0x3d16771a	0.036734678
13	0x3d490405	0.0490761
14	0x4059c733	3.4027832
15	0x4197a6c9	18.956438
16	0xbba90f75	-0.0051593133
17	0xbb4fbc9b	-0.003169811
18	0x417a1e91	15.6324625
19	0xbf8d6971	-1.1047803
20	0x3cc3432d	0.023835743
21	0xbcba9fb3	-0.022781229
22	0x4115f83b	9.373103
23	0xc0670c7f	-3.6101377
24	0xbb850eeb	-0.0040606163
25	0xbb67e825	-0.0035386172
26	0xc01b52a2	-2.4269185
27	0xc20100b8	-32.2507
28	0x3b9a73a5	0.004713493
29	0x3c133a91	0.008986131
30	0x3f97eafb	1.1868585
31	0xc16d4865	-14.830174
32	0xbb854061	-0.0040665125
33	0xbb99bb6e	-0.004691533
34	0x41077683	8.466434
35	0x417b2b74	15.698109
36	0x3c6dd1e1	0.014515371
37	0x3d85e9c3	0.06538727
38	0x40ae7d15	5.452769
39	0xc004e2c8	-2.0763416
40	0x3c28a385	0.010292892
41	0xbc482bba	-0.0122174565
42	0xc157e4d0	-13.493362
43	0xc1965371	-18.790743
44	0x3919f35a	0.00014681873
45	0xbb236ac9	-0.0024935475
46	0xc0b58d7d	-5.6735215
47	0xc144ee05	-12.30811
48	0xbaaa8f15	-0.0013012612
49	0x3be5ab17	0.007008921
50	0x40d02db5	6.5055795
51	0x40e485e0	7.141342
52	0x3c838338	0.01605378
53	0xbc08cfd9	-0.008350336
54	0x40cb364f	6.3503795
55	0x3eccde37	0.40013286
56	0xbc6f7ea9	-0.0146176005
57	0xbc963b90	-0.018338948
58	0x411c7d94	9.780659
59	0xc08d3dba	-4.413785
60	0x3ca3ec11	0.020010026
61	0x3a815a74	0.0009868876
62	0x408ec927	4.4620547
63	0xbe2014fe	-0.15633008
64	0xbcc95cac	-0.024580322
65	0xbd0cce7c	-0.034376606
66	0x4159f8ba	13.623224
67	0x40d2bf7f	6.585876
68	0xbcafeb1e	-0.021474417
69	0x3cb6c8ca	0.02231254
70	0x40c524d9	6.160748
71	0xc0156d63	-2.3348014
72	0x3c25430d	0.010086787
73	0xbb0d70e8	-0.002158219
74	0x41b4f4db	22.619558
75	0xc1d860c5	-27.04725
76	0xbd19597f	-0.037438866
77	0xbc94f791	-0.018184455
78	0xbfb5334a	-1.4156277
79	0xc1081d65	-8.507176
80	0x3bc19d6e	0.0059086597
81	0xbc546baf	-0.012965127
82	0x40f1d91f	7.557754
83	0xc08cfa1d	-4.4055314
84	0xbc29af60	-0.010356754
85	0x3daad99f	0.08342289
86	0x40c3e052	6.121133
87	0xbfd8eb8d	-1.6946884
88	0x39d4ad8f	0.00040565102
89	0x3bcc17ff	0.0062284465
90	0x41abba29	21.465899
91	0xc189e4ac	-17.236656
92	0x3c0210b0	0.007938549
93	0xbaacfd4d	-0.0013198048
94	0x40b74dc0	5.728241
95	0xc07a97ab	-3.915507
96	0x3b994f12	0.0046786154
97	0x3c0af2d4	0.008480746
98	0xc119d4a9	-9.614419
99	0xc1dd6cfd	-27.678217
100	0xbd01267e	-0.03153085
101	0xbce312c4	-0.02771891
102	0xc100f04d	-8.058667
103	0xc09f9ae5	-4.987658
104	0x3bfbbbd1	0.0076823016
105	0x3bddefd3	0.006772974
106	0xc18c6c11	-17.552767
107	0x3fe0f1b7	1.7573766
108	0xbc95780a	-0.018245716
109	0x3c07921d	0.008274582
110	0xc0735bcf	-3.8024786
111	0x3f5ad20d	0.8547676
112	0xbd3e98be	-0.046532385
113	0x3d56cb17	0.052439775
114	0x40ed233d	7.4105515
115	0x40c95a80	6.2922974
116	0x3e949943	0.2902318
117	0x3eab2ef6	0.33434266
118	0x4103f5ab	8.247478
119	0x3e706bce	0.23478624
120	0xbc2a419f	-0.010391622
121	0xbc3c1239	-0.011478954
122	0x4190430f	18.032743
123	0x3fafad41	1.3724748
124	0x3d08cadf	0.033396598
125	0xbd6305e7	-0.05542555
126	0x40c9dfc1	6.3085637
127	0x3efb60f4	0.49097407
128	0x3bec86bf	0.0072182114
129	0x3d1daf70	0.03849739
130	0xc1be4ad4	-23.786537
131	0xc175ef50	-15.370926
132	0xbc6eaebc	-0.014568027
133	0xbd3f92c5	-0.04677083
134	0xc08d8a5c	-4.4231396
135	0xc0825387	-4.072696
136	0xba2d1fb5	-0.0006604151
137	0xbc08e4b2	-0.008355306
138	0x41561504	13.380131
139	0x41c9c8c0	25.223022
140	0x3c126dca	0.008937309
141	0x3b83cd8a	0.004022305
142	0x40eb218d	7.3478456
143	0x410b9d7e	8.72595
144	0xbaa5cfc3	-0.0012650419
145	0x398bd21e	0.00026668696
146	0xbf58569a	-0.84507143
147	0xbfc83939	-1.5642463
148	0xbc2785e1	-0.01022479
149	0x3c492f27	0.012279308
150	0x3e87d25f	0.26527688
151	0xbd64e6c2	-0.05588413
152	0x3b37d1eb	0.0028048705
153	0x3b9133c2	0.004431219
154	0x4186d1e6	16.85249
155	0x41993ad8	19.153732
156	0xbc01b0b6	-0.007915666
157	0xbccdee43	-0.025138026
158	0x403361b5	2.8028386
159	0x3fc55eb3	1.5419525
160	0x3b862ea5	0.004094916
161	0x3cce4c23	0.02518279
162	0xc1abb26c	-21.46212
163	0x403df9b5	2.968366
164	0xbc2deb51	-0.010615186
165	0xbcb8cc73	-0.022558426
166	0xc0bf98eb	-5.9874167
167	0x405ff341	3.499222
168	0xbc8e8063	-0.017395204
169	0xbd2974a6	-0.04137101
170	0x409d2a66	4.9114256
171	0xc0e6c75e	-7.211837
172	0x3c900bd1	0.01758376
173	0x3d9cea4f	0.07661878
174	0x4117c364	9.485203
175	0xc0c8d24a	-6.27567
176	0xbccacb21	-0.024755063
177	0x3c2f67a2	0.01070586
178	0xc10055c0	-8.020935
179	0x417c3012	15.761736
180	0x3dcaf516	0.09910028
181	0x3de7d317	0.11319559
182	0x41373918	11.451439
183	0x408a0797	4.3134265
184	0xbbb78df0	-0.005601637
185	0xbbd25ada	-0.0064195218
186	0xc0f090d3	-7.5176787
187	0xc0d88cf9	-6.7672086
188	0xbc8e4343	-0.017366057
189	0xbc07bc7e	-0.008284686
190	0xc08b8d8d	-4.361029
191	0xbf947d6c	-1.1600776
192	0x39d9905b	0.00041497019
193	0xbb611aca	-0.0034348243
194	0xc209f9c7	-34.493923
195	0x421ba943	38.915295
196	0x3ae0496c	0.0017111725
197	0x3c0671df	0.00820586
198	0xbfed2b0e	-1.8528764
199	0x40ac6019	5.3867307
200	0x3c22e9bf	0.009943425
201	0xbca42d34	-0.020041086
202	0xc008a109	-2.1348288
203	0x408a145a	4.3149843
204	0xbdf725ad	-0.12067733
205	0xbc732d81	-0.014842392
206	0xc0b0b465	-5.522021
207	0x3fb9dc67	1.4520386
208	0x3b3228e5	0.002718502
209	0xba8f81e2	-0.0010948742
210	0xc1cea928	-25.832596
211	0x418a820f	17.313505
212	0xbc4bead8	-0.012446128
213	0x3b87842e	0.00413563
214	0xc07b3935	-3.9253666
215	0x4039d654	2.9037066
216	0x3c0bad02	0.008525135
217	0x3b81db60	0.003962919
218	0xc1f0bc07	-30.09181
219	0xc0331f98	-2.7988033
220	0xbd26a71d	-0.040686715
221	0xbd141f98	-0.036162943
222	0xc0cf467b	-6.4773536
223	0x4093398e	4.6007757
224	0xbcb3d6ac	-0.02195295
225	0x3d31a673	0.04337163
226	0x4019724f	2.3976018
227	0x40cd4dc4	6.415743
228	0xbc4bd590	-0.012441054
229	0x3df00a9e	0.11720775
230	0x40cd485e	6.415084
231	0x3ff12089	1.8838054
232	0x3ba7f645	0.005125793
233	0x3cceb5a9	0.025233107
234	0xbf8b3efe	-1.0878599
235	0xc1cfd2c4	-25.977913
236	0xbd5e1a71	-0.054224435
237	0x3d324d9f	0.043531056
238	0xc100b29a	-8.043604
239	0xc1032ce0	-8.198456
240	0xbb5e19a2	-0.003388979
241	0xbc5f2a56	-0.0136209335
242	0x3f0b20c3	0.54346865
243	0xc1824c90	-16.287384
244	0x3c9110e7	0.017708255
245	0x3cdb7604	0.026789673
246	0x408a20b5	4.3164926
247	0xbf37de83	-0.718239
248	0x39ad239a	0.00033023657
249	0xba0f37fe	-0.00054633606
250	0x4211bb10	36.43268
251	0xc2250aec	-41.260666
252	0xbbbec61d	-0.005821957
253	0xbb913825	-0.004431742
254	0x3fae8d68	1.3636904
255	0xc095deba	-4.6834383

fc1.bias f4 [32]
0	0x3f81eee0	1.0151024
1	0xbd0396db	-0.03212629
2	0x3ec7ccfa	0.39023572
3	0xbef34eea	-0.47521144
4	0xbfa4a9b2	-1.2864287
5	0x3e148fc0	0.14507961
6	0xbf91e2ef	-1.139738
7	0xbf593588	-0.8484731
8	0x3efc0ca3	0.4922839
9	0xbebe35cb	-0.37150416
10	0x400923a0	2.1427994
11	0x3f88fba8	1.0701799
12	0xbf69e0b4	-0.91358495
13	0xbf0a7f6c	-0.5410068
14	0xbf5be7d7	-0.85900635
15	0xbe53f616	-0.20699343
16	0xbf74b55a	-0.9558922
17	0x3e42ebd3	0.19035272
18	0x4178d7bd	15.5526705
19	0xbdc8bc4e	-0.09801541
20	0x4050fe68	3.2655277
21	0x409ed563	4.963548
22	0x3f2cd39b	0.67510384
23	0x3f9da78a	1.2316754
24	0xbda415a7	-0.08011942
25	0x3f517f84	0.818352
26	0x3fb71fac	1.430654
27	0x3ba66773	0.00507825
28	0x3eab8987	0.33503363
29	0x3e611026	0.21978816
30	0xbe2eed46	-0.170827
31	0xbdbce3b8	-0.092231214

fc2.weight f4 [32, 32]
0	0x3f8d316b	1.1030706
1	0x3f0aec72	0.54267037
2	0xc01151e9	-2.2706244
3	0xbffe3282	-1.9859164
4	0xc0f77905	-7.733523
5	0xc0e7ab50	-7.239662
6	0xbff1ba96	-1.8885067
7	0xbffac038	-1.958991
8	0xc0930169	-4.593922
9	0xc0828265	-4.0784173
10	0xbf550333	-0.83208007
11	0xc08604b0	-4.188072
12	0xbfdbcfb7	-1.7172765
13	0xc0d15c94	-6.542551
14	0x3e0c9edd	0.13732477
15	0xbf78cf9d	-0.9719179
16	0xc09680a7	-4.7032046
17	0xc009df60	-2.1542587
18	0x3e68cde3	0.2273479
19	0xc01362bc	-2.3029013
20	0xbf40ed17	-0.7536177
21	0xbf928ea6	-1.1449783
22	0xbfbeeb0c	-1.4915481
23	0xc0b214ef	-5.5650554
24	0xc0d28689	-6.5789227
25	0xbeb6d9b5	-0.35712972
26	0xc06894f5	-3.6340916
27	0xc0ddbdeb	-6.9294333
28	0xbf8bdead	-1.092733
29	0xc0871c62	-4.2222147
30	0xc01410b9	-2.3135207
31	0xc07e7b83	-3.9762886
32	0xbd1dec83	-0.038555633
33	0xc097eeb9	-4.747891
34	0xbf96b49c	-1.1773868
35	0xc091b09f	-4.55281
36	0xc0c07abf	-6.0149837
37	0x3e478927	0.19485913
38	0xc08e40db	-4.445417
39	0xc01f7341	-2.4914095
40	0x4071fcff	3.7810667
41	0xc076dc5e	-3.8572001
42	0xbfa96a1a	-1.3235505
43	0xc08d9bf8	-4.425289
44	0xc04535a7	-3.0813997
45	0x4081b28a	4.0530443
46	0x3ee0c5f3	0.43901023
47	0xbebfc196	-0.37452382
48	0xc03cbdc7	-2.949083
49	0xc0163a45	-2.3473065
50	0x40366046	2.849626
51	0xc05d6776	-3.4594398
52	0x401798fa	2.368712
53	0x40545f56	3.3183188
54	0x3f50a073	0.81494826
55	0xc0a1f369	-5.060963
56	0xc18254d8	-16.291428
57	0xbf1ad650	-0.60483265
58	0xc08bdfee	-4.371085
59	0xbf86380d	-1.0485855
60	0xbf1c0d90	-0.60958195
61	0x4007bab3	2.1207702
62	0xbeb8b9aa	-0.3607915
63	0xc1e1821a	-28.188526
64	0xbea6a5ab	-0.3254827
65	0xc03586f2	-2.8363614
66	0xbdc74c8c	-0.09731397
67	0xbf6e805c	-0.9316461
68	0xbeb3449a	-0.35013276
69	0x3f4ee290	0.80814457
70	0xbf7f0a8b	-0.9962546
71	0xbfc619fd	-1.5476681
72	0x3e918266	0.284198
73	0xc09c9d72	-4.8942194
74	0x3f8ebf15	1.1152064
75	0xc0cf3907	-6.4757113
76	0xbfd56db8	-1.6674109
77	0xbf2c1875	-0.6722482
78	0xbfef6186	-1.8701637
79	0x3dde563e	0.10856293
80	0x3f71fe79	0.9452892
81	0xc01286b4	-2.2894716
82	0x402be973	2.6861236
83	0x3f2ca70c	0.67442393
84	0x3f7504a8	0.9571023
85	0x3f028a63	0.5099241
86	0xbffecbe5	-1.9905974
87	0xbf18f05d	-0.59741765
88	0xc17be1be	-15.742613
89	0xbf798176	-0.97463167
90	0xc11aa31e	-9.664824
91	0x3e54b459	0.20771922
92	0xbf62c8db	-0.8858773
93	0xbfe7f58e	-1.8121812
94	0x3ec5dd98	0.38645625
95	0xc1867cab	-16.810873
96	0xbfe88beb	-1.81677
97	0xc0c8f305	-6.2796655
98	0xc030c76d	-2.762172
99	0xc053be2a	-3.3084817
100	0x3f15dc7b	0.5853955
101	0xc011aba1	-2.2761004
102	0x3f5e10f1	0.867446
103	0xc04581b5	-3.0860417
104	0xbf34d045	-0.70630294
105	0xc05220ce	-3.2832522
106	0x3e0aa672	0.13540056
107	0xc02b0f90	-2.6728249
108	0xc03fac12	-2.9948773
109	0xbf9ec10c	-1.2402663
110	0xc10f36f4	-8.950916
111	0xc132bcad	-11.171063
112	0xc02e0a14	-2.7193651
113	0xbfe093a6	-1.7545059
114	0xbe394bf6	-0.18095383
115	0xc0f8de02	-7.7771006
116	0xc043c91b	-3.0591495
117	0xbf8464e6	-1.0343292
118	0x3f586afd	0.8453825
119	0xbfc3b68a	-1.5290082
120	0xbfa3d8ca	-1.2800534
121	0xbf5211d0	-0.8205843
122	0xbfafc572	-1.373213
123	0xbf70c6fb	-0.9405362
124	0x3fe14f69	1.7602359
125	0xbfedf73a	-1.8591073
126	0xbfd87c3e	-1.6912916
127	0xbfd07792	-1.628649
128	0xbaa6006b	-0.001266492
129	0xc07738ba	-3.8628373
130	0x3f365057	0.7121634
131	0xbf6ca445	-0.92438155
132	0x3dcca58b	0.09992512
133	0xbdb6fb0b	-0.089346014
134	0xbfdda2d3	-1.7315315
135	0xc0892f94	-4.287058
136	0x3ee065e1	0.43827727
137	0xc04fe360	-3.2482529
138	0x3f184334	0.59477544
139	0xc06e2aa0	-3.7213516
140	0xbf9e224f	-1.235422
141	0xbe7edbea	-0.24888578
142	0xbeca1325	-0.3946773
143	0xbefcce64	-0.49376214
144	0xbe72f259	-0.23725261
145	0xbfadf93f	-1.3591689
146	0x40056730	2.084423
147	0x3f799251	0.97488886
148	0x3ee55a52	0.4479547
149	0x3ed6d2fe	0.4195785
150	0xbf82f6c2	-1.0231555
151	0xc0324e75	-2.7860386
152	0xc0edd077	-7.4316974
153	0xc007aab1	-2.1197932
154	0xc0887544	-4.2643147
155	0x3e66c019	0.22534217
156	0xbf4e890e	-0.8067788
157	0xbf598a74	-0.8497689
158	0xbee80ded	-0.45323125
159	0xc1863bbc	-16.779167
160	0x3f83e8fd	1.0305477
161	0xc0148c0d	-2.321048
162	0x3f49f611	0.7889109
163	0xc0417797	-3.0229242
164	0xbfd0aeeb	-1.6303381
165	0x3fa482ad	1.2852379
166	0x3ee80890	0.45319033
167	0xc01be50f	-2.4358556
168	0xbe575e92	-0.2103217
169	0xc08601d0	-4.1877213
170	0xbebe2108	-0.37134576
171	0xc0a42715	-5.1297708
172	0xc1338ca4	-11.221836
173	0x40abcf88	5.3690834
174	0x3ed1dacc	0.4098724
175	0x3f126894	0.57190824
176	0xbfe8b4a1	-1.8180124
177	0xc0b172ab	-5.5452476
178	0x40224611	2.5355265
179	0x3fc64f21	1.5492898
180	0x3f57a2d2	0.8423282
181	0x3ef2e5c9	0.47440937
182	0xbfb8afd3	-1.4428657
183	0xbf55b713	-0.83482474
184	0xc1bee6f3	-23.862768
185	0x3fab38bd	1.337669
186	0xc1397f35	-11.593556
187	0x3fc2efb8	1.5229406
188	0xbfd0e529	-1.6319934
189	0xbe59dbae	-0.21275207
190	0xbf6fe3ea	-0.93707144
191	0xc18b9e13	-17.452185
192	0xc09ad625	-4.8386407
193	0xc0c41455	-6.127482
194	0xc09d8e08	-4.923588
195	0xc08af939	-4.3429227
196	0xbfb121b7	-1.3838414
197	0xbfcc1098	-1.5942564
198	0x3fe4a89c	1.7863955
199	0xbf88bd5a	-1.0682786
200	0xc0a3cced	-5.1187654
201	0xc00b6625	-2.1781094
202	0xbebf7062	-0.3739043
203	0xbfe8e8c2	-1.8196032
204	0xc0740a7e	-3.8131404
205	0xbfea5031	-1.8305722
206	0xc156de32	-13.429247
207	0xc15f7507	-13.966071
208	0xc01af15c	-2.4209814
209	0xbff3f851	-1.9060155
210	0x3eb6d070	0.357059
211	0xc14ff4bb	-12.997249
212	0xbf59f46b	-0.8513858
213	0xbe27bdf6	-0.16381058
214	0xbf00c988	-0.5030751
215	0xc072d810	-3.7944374
216	0xbf56b007	-0.83862346
217	0xc083104c	-4.0957394
218	0xc01eb043	-2.4795082
219	0xbf7fc367	-0.99907535
220	0xc007bfb7	-2.1210763
221	0xbecb8be3	-0.39755163
222	0xbd8d0e6d	-0.06887517
223	0x3f8d139e	1.1021612
224	0xc018427d	-2.3790581
225	0xc072a803	-3.7915046
226	0xbfc25f2b	-1.5185293
227	0xc09f4bbf	-4.9779963
228	0x3f31f17c	0.695091
229	0xbfb61be7	-1.4227265
230	0xbe906d55	-0.28208414
231	0xbfdbdae6	-1.7176178
232	0x3f6dad21	0.928423
233	0xc0dafda8	-6.843464
234	0xbdf32b3b	-0.1187348
235	0xc12e68d5	-10.900594
236	0xc02a5946	-2.6616988
237	0xbdf6fa81	-0.120594986
238	0x3efc42d3	0.49269733
239	0x3f3d0c8b	0.73847264
240	0xc0d152bb	-6.541349
241	0xc137baec	-11.483135
242	0xbfa2a2ac	-1.2705894
243	0x3e274e98	0.16338575
244	0xbf57c464	-0.84284043
245	0xbf41516c	-0.75514865
246	0xbdcba42f	-0.09943425
247	0xc08028de	-4.0049887
248	0xc033fe97	-2.812414
249	0x40c65b7d	6.198668
250	0xc0c030b5	-6.0059457
251	0xc051690d	-3.2720368
252	0xc03ef450	-2.9836617
253	0xc06af6ed	-3.6713212
254	0xbfb6775c	-1.4255176
255	0xc13eb641	-11.919496

fc2.bias f4 [32]
0	0xbf3e1e05	-0.74264556
1	0x40d84103	6.757936
2	0xbef91f15	-0.48656526
3	0x3f0136d6	0.504743
4	0xbf57d82d	-0.84314233
5	0x3e9f3d7b	0.31101593
6	0xbf32f7bd	-0.6990927
7	0xbf8fc15c	-1.1230884
8	0x402aee6c	2.670802
9	0x412c9f6b	10.78892
10	0x3ee3caf4	0.44490778
11	0x3f123d86	0.5712513
12	0x3cf1cc1d	0.029516274
13	0x408a120e	4.314704
14	0xbea7e98f	-0.3279538
15	0x410235ba	8.138117
16	0xc02a709f	-2.6631238
17	0xbf6a3483	-0.91486377
18	0x4123e9ad	10.24455
19	0x40f86a8f	7.7630076
20	0x4105578f	8.333877
21	0x3f861a81	1.0476838
22	0xbe8b07e1	-0.2715445
23	0xbfc3fd13	-1.5311607
24	0x40c52acd	6.1614747
25	0xbfef7d4d	-1.8710114
26	0x3ea14649	0.31498936
27	0xbc2c4bdf	-0.010516136
28	0xbf93e08a	-1.1552899
29	0x40a24128	5.0704536
30	0x3f9c34ee	1.2203653
31	0x40788b62	3.8835073

fc3.weight f4 [25, 32]
0	0xc0626ab1	-3.537762
1	0x3fac5431	1.3463193
2	0xc0a56477	-5.168514
3	0xbfb72377	-1.4307698
4	0xc0435bfa	-3.0524888
5	0xbf96c9c1	-1.178032
6	0xbfceb04c	-1.6147552
7	0xc0469be9	-3.103266
8	0xbf88f3ad	-1.0699364
9	0x3fc8e137	1.569373
10	0x402e2db5	2.7215397
11	0x4016a5eb	2.3538768
12	0xbf37785c	-0.7166803
13	0x406e71d8	3.7256985
14	0xc0710388	-3.7658405
15	0x4005f084	2.092805
16	0xbf795717	-0.97398514
17	0xbfea0825	-1.8283736
18	0x40089182	2.133881
19	0x3fc00770	1.500227
20	0x3f5dd61e	0.8665484
21	0x408e45b4	4.4460087
22	0x404e03c4	3.2189798
23	0xbff578ce	-1.9177492
24	0x4040f693	3.0150497
25	0xc125b9b1	-10.357835
26	0x4026c266	2.6056151
27	0xc092560c	-4.573004
28	0xbf238e0d	-0.6388863
29	0x3fc29b6c	1.5203681
30	0xc04a19d6	-3.157827
31	0xbfe1c9ce	-1.7639711
32	0xc084fbaa	-4.1557207
33	0x3fc916d6	1.5710094
34	0xc0a1fe1e	-5.06227
35	0x3fcd3ced	1.6034218
36	0xc02caeb5	-2.6981633
37	0xbfa28ae1	-1.2698632
38	0xbe351847	-0.17685042
39	0xc092d1bf	-4.588104
40	0xc0200902	-2.5005498
41	0x3fd7a785	1.6847998
42	0x40650170	3.5782127
43	0x40099885	2.149934
44	0xbf55ac88	-0.83466387
45	0x402e1f70	2.7206688
46	0xc06c6983	-3.69394
47	0x3fe3d5ec	1.7799659
48	0xbfe99c5a	-1.825084
49	0xbfd91401	-1.695923
50	0x400cff6e	2.2030902
51	0x3f7c165e	0.9847163
52	0x3f4d6acc	0.80241084
53	0x40bc255a	5.8795595
54	0x4076204c	3.8457212
55	0xbfdd7e12	-1.7304099
56	0x40393b28	2.8942356
57	0xc11bc88f	-9.7364645
58	0x40447ebc	3.0702353
59	0xc017327a	-2.3624558
60	0xbf51604d	-0.8178757
61	0x3fc4bc49	1.536996
62	0xc01a31c1	-2.4092867
63	0xbf8f93cf	-1.1216983
64	0xc0716753	-3.7719314
65	0x3fba1925	1.4538924
66	0xc0a272db	-5.0765204
67	0x3f76fc95	0.9647916
68	0xc042b37e	-3.0422053
69	0xbf80db02	-1.0066836
70	0xc02e7fba	-2.7265458
71	0xc0711251	-3.766743
72	0xc038606e	-2.8808856
73	0x3fcc2ed3	1.595179
74	0x407af261	3.9210436
75	0x4055c67d	3.3402398
76	0xbf718767	-0.9434723
77	0x404d41bc	3.207137
78	0xc03eb166	-2.9795775
79	0x3fe54ccd	1.7914063
80	0xbfda52ae	-1.7056482
81	0xbfcace53	-1.5844215
82	0x400ff9be	2.249618
83	0x3f8da39e	1.1065557
84	0x3f76ebb3	0.964534
85	0x4097fac2	4.74936
86	0x4066f470	3.6086693
87	0xbfe4d993	-1.7878898
88	0x40340e42	2.8133702
89	0xc11c5d4a	-9.772776
90	0x4072291e	3.7837596
91	0xc0854844	-4.1650715
92	0xbf558eb4	-0.8342087
93	0x3fc62e86	1.5482948
94	0xc032cab9	-2.7936232
95	0xbf6aaffc	-0.9167478
96	0xc03d5a14	-2.958623
97	0x3fbf9810	1.4968281
98	0xc09e99a7	-4.9562564
99	0xbf94357f	-1.1578826
100	0xc044b4f4	-3.0735445
101	0xbf97794f	-1.1833895
102	0xc0220fc1	-2.5322115
103	0xc0350fea	-2.8290963
104	0xc0637ce2	-3.5544972
105	0x3fd09789	1.6296245
106	0x40789d63	3.8846061
107	0x40306fb2	2.7568173
108	0xbf811ff9	-1.0087882
109	0x405a8521	3.4143755
110	0xc0732c5f	-3.7995832
111	0x3fdc3426	1.7203414
112	0xbff3104f	-1.8989352
113	0xbfcc766c	-1.597364
114	0x4011e126	2.279367
115	0x3f7118cb	0.94178456
116	0x3f6fc8a9	0.9366556
117	0x408da881	4.4268193
118	0x407a3fc7	3.9101427
119	0xbfcfc878	-1.6233053
120	0x40395e18	2.896368
121	0xc118cc42	-9.549868
122	0x4055e00b	3.3417995
123	0xc0739395	-3.8058827
124	0xbf560d0e	-0.8361367
125	0x3fbecb9b	1.4905885
126	0xc040c19f	-3.0118177
127	0xbf2b827c	-0.6699598
128	0xc04e44e5	-3.222955
129	0x3fb95d21	1.4481546
130	0xc09eec06	-4.9663115
131	0xbed8f75d	-0.42376223
132	0xc0486e80	-3.1317444
133	0xbf8f0ab8	-1.1175146
134	0xc0456c05	-3.084718
135	0xc052a8e9	-3.2915595
136	0xc064d846	-3.5757003
137	0x3fcab8c0	1.5837631
138	0x406a06b6	3.6566596
139	0x404be011	3.185551
140	0xbf809ada	-1.0047257
141	0x406e3373	3.7218902
142	0xc07f318f	-3.9873998
143	0x3fda0cb2	1.7035124
144	0xc000a397	-2.0099847
145	0xbfbf40c8	-1.4941645
146	0x400f8014	2.2421923
147	0x3f86e124	1.0537457
148	0x3f784e8f	0.9699487
149	0x409531e7	4.6623416
150	0x4086d546	4.2135344
151	0xbfd4f3ea	-1.6636937
152	0x403eb7e7	2.9799745
153	0xc117e48d	-9.493299
154	0x4078c56d	3.88705
155	0xc0a8bf99	-5.2733884
156	0xbf6d79b4	-0.9276383
157	0x3fb5c7ee	1.4201639
158	0xc04f1aa8	-3.236002
159	0xbf1fe37d	-0.62456495
160	0xc07eed56	-3.9832358
161	0x3fbfd000	1.4985352
162	0xc099b0ed	-4.8028474
163	0xbed2d688	-0.411793
164	0xc05811b7	-3.3760812
165	0xbf84893a	-1.0354378
166	0xc03086e7	-2.7582338
167	0xc06769c4	-3.6158304
168	0xc049f75d	-3.1557229
169	0x3fba182e	1.4538629
170	0x40adf715	5.4364114
171	0x403187cd	2.7739136
172	0xbf5788c2	-0.8419305
173	0x4053b5c7	3.3079698
174	0xc10db323	-8.856235
175	0x3fe019e6	1.7507904
176	0xbfc06817	-1.5031766
177	0xbfc778c4	-1.558373
178	0x4010015d	2.2500832
179	0x3f8a187d	1.0788723
180	0x3f49708b	0.7868735
181	0x409e61aa	4.949422
182	0x4049281f	3.1430738
183	0xbfd96d4f	-1.6986483
184	0x4040ef47	3.0146043
185	0xc11e7e1d	-9.905789
186	0x404c1d98	3.1893063
187	0xbfd18ab5	-1.6370455
188	0xbf4634eb	-0.77424496
189	0x3fcf5888	1.6198893
190	0xc02e0977	-2.7193277
191	0xbf8cd0fe	-1.1001279
192	0xbf9bb86c	-1.2165656
193	0x3fb26950	1.3938389
194	0xc0a46b4f	-5.138099
195	0x3fc2669d	1.5187565
196	0xc04af8f1	-3.1714442
197	0xbf919019	-1.13721
198	0xbd5cb4dd	-0.053883422
199	0xc054d7d6	-3.3256736
200	0x3f46f733	0.77720946
201	0x3fcf4c2f	1.6195124
202	0x4100196c	8.0062065
203	0x41024900	8.142822
204	0xbf52d980	-0.8236313
205	0x40589f6e	3.3847308
206	0xc06725b7	-3.611677
207	0x3fe8971c	1.8171115
208	0xbfc07dc1	-1.5038377
209	0xbfea8287	-1.8321084
210	0x400e5937	2.2241952
211	0x3f96402e	1.1738336
212	0x3f79c357	0.9756369
213	0x40988ee5	4.767443
214	0x4097bfe6	4.742175
215	0xbfd4325a	-1.6577866
216	0x403c6772	2.9438138
217	0xc12bcb16	-10.737082
218	0x40908d5d	4.5172563
219	0xc06d17d8	-3.7045803
220	0xbf473022	-0.7780782
221	0x3fbd13f5	1.4771715
222	0xc037cc8a	-2.871859
223	0xbf96f19c	-1.1792483
224	0xc04e1a57	-3.2203577
225	0x3fb3af95	1.4037958
226	0xc0a18f6a	-5.0487566
227	0x3fdbc6ea	1.7170079
228	0xc04a102b	-3.1572368
229	0xbf89add6	-1.0756176
230	0xbfbeb118	-1.4897795
231	0xc024415e	-2.5664897
232	0xbf942a34	-1.1575379
233	0x3fd3e24b	1.6553434
234	0x409ce03a	4.9023714
235	0x40851614	4.158945
236	0xbf5f27b2	-0.87169945
237	0x40520ca1	3.2820208
238	0xc0834c48	-4.1030617
239	0x3fd5aa4a	1.6692593
240	0xc002645e	-2.037376
241	0xbfd43be0	-1.6580772
242	0x401347d1	2.3012583
243	0x3f8e7d11	1.1131917
244	0x3f6ad9de	0.9173869
245	0x40bb9cab	5.8628745
246	0x408b112f	4.3458476
247	0xbfd6e771	-1.678938
248	0x4038cf61	2.8876574
249	0xc1202b84	-10.010624
250	0x409d2977	4.9113116
251	0xc0871ca6	-4.222247
252	0xbf5af0d9	-0.85523754
253	0x3fb48efd	1.4106137
254	0xc03834a2	-2.8782125
255	0xbf6763b9	-0.9038654

fc3.bias f4 [25]
0	0x4178ad22	15.542269
1	0x41107171	9.027696
2	0x4119588a	9.584116
3	0x40a0b116	5.021617
4	0x40959b47	4.6752048
5	0x411c2d87	9.761115
6	0x418eb284	17.837166
7	0x415f5645	13.958562
8	0x40c9af41	6.3026433
9	0x408e464c	4.446081
10	0x40f74fc3	7.7284865
11	0x414c4ee3	12.769259
12	0x41b8c5c0	23.096558
13	0x4101d814	8.115253
14	0x40758231	3.8360713
15	0x40a8708d	5.263739
16	0x40e14d02	7.0406504
17	0x40e5d5d9	7.1823545
18	0x41a49b62	20.57587
19	0x3f4a4b34	0.79021
20	0x404084e5	3.0081112
21	0x40ad234d	5.410559
22	0xc30f46a9	-143.27602
23	0x3fc2f258	1.5230207
24	0xc09ce708	-4.903202

fc1.weight f4 [32, 8]
0	0x3cdb06e5	0.026736686
1	0x3c5b6576	0.013390889
2	0xc0904186	-4.5079985
3	0x4099bcc7	4.804294
4	0x3c95f6d4	0.018306173
5	0xbd5bc6d2	-0.053656407
6	0xc0f26d0d	-7.575812
7	0x3fb8f8a0	1.4450874
8	0xbb8457c4	-0.004038783
9	0xbc0d182d	-0.008611721
10	0xc187ff68	-16.99971
11	0x41ad9f2c	21.70272
12	0x3d16771a	0.036734678
13	0x3d490405	0.0490761
14	0x4059c733	3.4027832
15	0x4197a6c9	18.956438
16	0xbba90f75	-0.0051593133
17	0xbb4fbc9b	-0.003169811
18	0x417a1e91	15.6324625
19	0xbf8d6971	-1.1047803
20	0x3cc3432d	0.023835743
21	0xbcba9fb3	-0.022781229
22	0x4115f83b	9.373103
23	0xc0670c7f	-3.6101377
24	0xbb850eeb	-0.0040606163
25	0xbb67e825	-0.0035386172
26	0xc01b52a2	-2.4269185
27	0xc20100b8	-32.2507
28	0x3b9a73a5	0.004713493
29	0x3c133a91	0.008986131
30	0x3f97eafb	1.1868585
31	0xc16d4865	-14.830174
32	0xbb854061	-0.0040665125
33	0xbb99bb6e	-0.004691533
34	0x41077683	8.466434
35	0x417b2b74	15.698109
36	0x3c6dd1e1	0.014515371
37	0x3d85e9c3	0.06538727
38	0x40ae7d15	5.452769
39	0xc004e2c8	-2.0763416
40	0x3c28a385	0.010292892
41	0xbc482bba	-0.0122174565
42	0xc157e4d0	-13.493362
43	0xc1965371	-18.790743
44	0x3919f35a	0.00014681873
45	0xbb236ac9	-0.0024935475
46	0xc0b58d7d	-5.6735215
47	0xc144ee05	-12.30811
48	0xbaaa8f15	-0.0013012612
49	0x3be5ab17	0.007008921
50	0x40d02db5	6.5055795
51	0x40e485e0	7.141342
52	0x3c838338	0.01605378
53	0xbc08cfd9	-0.008350336
54	0x40cb364f	6.3503795
55	0x3eccde37	0.40013286
56	0xbc6f7ea9	-0.0146176005
57	0xbc963b90	-0.018338948
58	0x411c7d94	9.780659
59	0xc08d3dba	-4.413785
60	0x3ca3ec11	0.020010026
61	0x3a815a74	0.0009868876
62	0x408ec927	4.4620547
63	0xbe2014fe	-0.15633008
64	0xbcc95cac	-0.024580322
65	0xbd0cce7c	-0.034376606
66	0x4159f8ba	13.623224
67	0x40d2bf7f	6.585876
68	0xbcafeb1e	-0.021474417
69	0x3cb6c8ca	0.02231254
70	0x40c524d9	6.160748
71	0xc0156d63	-2.3348014
72	0x3c25430d	0.010086787
73	0xbb0d70e8	-0.002158219
74	0x41b4f4db	22.619558
75	0xc1d860c5	-27.04725
76	0xbd19597f	-0.037438866
77	0xbc94f791	-0.018184455
78	0xbfb5334a	-1.4156277
79	0xc1081d65	-8.507176
80	0x3bc19d6e	0.0059086597
81	0xbc546baf	-0.012965127
82	0x40f1d91f	7.557754
83	0xc08cfa1d	-4.4055314
84	0xbc29af60	-0.010356754
85	0x3daad99f	0.08342289
86	0x40c3e052	6.121133
87	0xbfd8eb8d	-1.6946884
88	0x39d4ad8f	0.00040565102
89	0x3bcc17ff	0.0062284465
90	0x41abba29	21.465899
91	0xc189e4ac	-17.236656
92	0x3c0210b0	0.007938549
93	0xbaacfd4d	-0.0013198048
94	0x40b74dc0	5.728241
95	0xc07a97ab	-3.915507
96	0x3b994f12	0.0046786154
97	0x3c0af2d4	0.008480746
98	0xc119d4a9	-9.614419
99	0xc1dd6cfd	-27.678217
100	0xbd01267e	-0.03153085
101	0xbce312c4	-0.02771891
102	0xc100f04d	-8.058667
103	0xc09f9ae5	-4.987658
104	0x3bfbbbd1	0.0076823016
105	0x3bddefd3	0.006772974
106	0xc18c6c11	-17.552767
107	0x3fe0f1b7	1.7573766
108	0xbc95780a	-0.018245716
109	0x3c07921d	0.008274582
110	0xc0735bcf	-3.8024786
111	0x3f5ad20d	0.8547676
112	0xbd3e98be	-0.046532385
113	0x3d56cb17	0.052439775
114	0x40ed233d	7.4105515
115	0x40c95a80	6.2922974
116	0x3e949943	0.2902318
117	0x3eab2ef6	0.33434266
118	0x4103f5ab	8.247478
119	0x3e706bce	0.23478624
120	0xbc2a419f	-0.010391622
121	0xbc3c1239	-0.011478954
122	0x4190430f	18.032743
123	0x3fafad41	1.3724748
124	0x3d08cadf	0.033396598
125	0xbd6305e7	-0.05542555
126	0x40c9dfc1	6.3085637
127	0x3efb60f4	0.49097407
128	0x3bec86bf	0.0072182114
129	0x3d1daf70	0.03849739
130	0xc1be4ad4	-23.786537
131	0xc175ef50	-15.370926
132	0xbc6eaebc	-0.014568027
133	0xbd3f92c5	-0.04677083
134	0xc08d8a5c	-4.4231396
135	0xc0825387	-4.072696
136	0xba2d1fb5	-0.0006604151
137	0xbc08e4b2	-0.008355306
138	0x41561504	13.380131
139	0x41c9c8c0	25.223022
140	0x3c126dca	0.008937309
141	0x3b83cd8a	0.004022305
142	0x40eb218d	7.3478456
143	0x410b9d7e	8.72595
144	0xbaa5cfc3	-0.0012650419
145	0x398bd21e	0.00026668696
146	0xbf58569a	-0.84507143
147	0xbfc83939	-1.5642463
148	0xbc2785e1	-0.01022479
149	0x3c492f27	0.012279308
150	0x3e87d25f	0.26527688
151	0xbd64e6c2	-0.05588413
152	0x3b37d1eb	0.0028048705
153	0x3b9133c2	0.004431219
154	0x4186d1e6	16.85249
155	0x41993ad8	19.153732
156	0xbc01b0b6	-0.007915666
157	0xbccdee43	-0.025138026
158	0x403361b5	2.8028386
159	0x3fc55eb3	1.5419525
160	0x3b862ea5	0.004094916
161	0x3cce4c23	0.02518279
162	0xc1abb26c	-21.46212
163	0x403df9b5	2.968366
164	0xbc2deb51	-0.010615186
165	0xbcb8cc73	-0.022558426
166	0xc0bf98eb	-5.9874167
167	0x405ff341	3.499222
168	0xbc8e8063	-0.017395204
169	0xbd2974a6	-0.04137101
170	0x409d2a66	4.9114256
171	0xc0e6c75e	-7.211837
172	0x3c900bd1	0.01758376
173	0x3d9cea4f	0.07661878
174	0x4117c364	9.485203
175	0xc0c8d24a	-6.27567
176	0xbccacb21	-0.024755063
177	0x3c2f67a2	0.01070586
178	0xc10055c0	-8.020935
179	0x417c3012	15.761736
180	0x3dcaf516	0.09910028
181	0x3de7d317	0.11319559
182	0x41373918	11.451439
183	0x408a0797	4.3134265
184	0xbbb78df0	-0.005601637
185	0xbbd25ada	-0.0064195218
186	0xc0f090d3	-7.5176787
187	0xc0d88cf9	-6.7672086
188	0xbc8e4343	-0.017366057
189	0xbc07bc7e	-0.008284686
190	0xc08b8d8d	-4.361029
191	0xbf947d6c	-1.1600776
192	0x39d9905b	0.00041497019
193	0xbb611aca	-0.0034348243
194	0xc209f9c7	-34.493923
195	0x421ba943	38.915295
196	0x3ae0496c	0.0017111725
197	0x3c0671df	0.00820586
198	0xbfed2b0e	-1.8528764
199	0x40ac6019	5.3867307
200	0x3c22e9bf	0.009943425
201	0xbca42d34	-0.020041086
202	0xc008a109	-2.1348288
203	0x408a145a	4.3149843
204	0xbdf725ad	-0.12067733
205	0xbc732d81	-0.014842392
206	0xc0b0b465	-5.522021
207	0x3fb9dc67	1.4520386
208	0x3b3228e5	0.002718502
209	0xba8f81e2	-0.0010948742
210	0xc1cea928	-25.832596
211	0x418a820f	17.313505
212	0xbc4bead8	-0.012446128
213	0x3b87842e	0.00413563
214	0xc07b3935	-3.9253666
215	0x4039d654	2.9037066
216	0x3c0bad02	0.008525135
217	0x3b81db60	0.003962919
218	0xc1f0bc07	-30.09181
219	0xc0331f98	-2.7988033
220	0xbd26a71d	-0.040686715
221	0xbd141f98	-0.036162943
222	0xc0cf467b	-6.4773536
223	0x4093398e	4.6007757
224	0xbcb3d6ac	-0.02195295
225	0x3d31a673	0.04337163
226	0x4019724f	2.3976018
227	0x40cd4dc4	6.415743
228	0xbc4bd590	-0.012441054
229	0x3df00a9e	0.11720775
230	0x40cd485e	6.415084
231	0x3ff12089	1.8838054
232	0x3ba7f645	0.005125793
233	0x3cceb5a9	0.025233107
234	0xbf8b3efe	-1.0878599
235	0xc1cfd2c4	-25.977913
236	0xbd5e1a71	-0.054224435
237	0x3d324d9f	0.043531056
238	0xc100b29a	-8.043604
239	0xc1032ce0	-8.198456
240	0xbb5e19a2	-0.003388979
241	0xbc5f2a56	-0.0136209335
242	0x3f0b20c3	0.54346865
243	0xc1824c90	-16.287384
244	0x3c9110e7	0.017708255
245	0x3cdb7604	0.026789673
246	0x408a20b5	4.3164926
247	0xbf37de83	-0.718239
248	0x39ad239a	0.00033023657
249	0xba0f37fe	-0.00054633606
250	0x4211bb10	36.43268
251	0xc2250aec	-41.260666
252	0xbbbec61d	-0.005821957
253	0xbb913825	-0.004431742
254	0x3fae8d68	1.3636904
255	0xc095deba	-4.6834383

fc1.bias f4 [32]
0	0x3f81eee0	1.0151024
1	0xbd0396db	-0.03212629
2	0x3ec7ccfa	0.39023572
3	0xbef34eea	-0.47521144
4	0xbfa4a9b2	-1.2864287
5	0x3e148fc0	0.14507961
6	0xbf91e2ef	-1.139738
7	0xbf593588	-0.8484731
8	0x3efc0ca3	0.4922839
9	0xbebe35cb	-0.37150416
10	0x400923a0	2.1427994
11	0x3f88fba8	1.0701799
12	0xbf69e0b4	-0.91358495
13	0xbf0a7f6c	-0.5410068
14	0xbf5be7d7	-0.85900635
15	0xbe53f616	-0.20699343
16	0xbf74b55a	-0.9558922
17	0x3e42ebd3	0.19035272
18	0x4178d7bd	15.5526705
19	0xbdc8bc4e	-0.09801541
20	0x4050fe68	3.2655277
21	0x409ed563	4.963548
22	0x3f2cd39b	0.67510384
23	0x3f9da78a	1.2316754
24	0xbda415a7	-0.08011942
25	0x3f517f84	0.818352
26	0x3fb71fac	1.430654
27	0x3ba66773	0.00507825
28	0x3eab8987	0.33503363
29	0x3e611026	0.21978816
30	0xbe2eed46	-0.170827
31	0xbdbce3b8	-0.092231214

fc2.weight f4 [32, 32]
0	0x3f8d316b	1.1030706
1	0x3f0aec72	0.54267037
2	0xc01151e9	-2.2706244
3	0xbffe3282	-1.9859164
4	0xc0f77905	-7.733523
5	0xc0e7ab50	-7.239662
6	0xbff1ba96	-1.8885067
7	0xbffac038	-1.958991
8	0xc0930169	-4.593922
9	0xc0828265	-4.0784173
10	0xbf550333	-0.83208007
11	0xc08604b0	-4.188072
12	0xbfdbcfb7	-1.7172765
13	0xc0d15c94	-6.542551
14	0x3e0c9edd	0.13732477
15	0xbf78cf9d	-0.9719179
16	0xc09680a7	-4.7032046
17	0xc009df60	-2.1542587
18	0x3e68cde3	0.2273479
19	0xc01362bc	-2.3029013
20	0xbf40ed17	-0.7536177
21	0xbf928ea6	-1.1449783
22	0xbfbeeb0c	-1.4915481
23	0xc0b214ef	-5.5650554
24	0xc0d28689	-6.5789227
25	0xbeb6d9b5	-0.35712972
26	0xc06894f5	-3.6340916
27	0xc0ddbdeb	-6.9294333
28	0xbf8bdead	-1.092733
29	0xc0871c62	-4.2222147
30	0xc01410b9	-2.3135207
31	0xc07e7b83	-3.9762886
32	0xbd1dec83	-0.038555633
33	0xc097eeb9	-4.747891
34	0xbf96b49c	-1.1773868
35	0xc091b09f	-4.55281
36	0xc0c07abf	-6.0149837
37	0x3e478927	0.19485913
38	0xc08e40db	-4.445417
39	0xc01f7341	-2.4914095
40	0x4071fcff	3.7810667
41	0xc076dc5e	-3.8572001
42	0xbfa96a1a	-1.3235505
43	0xc08d9bf8	-4.425289
44	0xc04535a7	-3.0813997
45	0x4081b28a	4.0530443
46	0x3ee0c5f3	0.43901023
47	0xbebfc196	-0.37452382
48	0xc03cbdc7	-2.949083
49	0xc0163a45	-2.3473065
50	0x40366046	2.849626
51	0xc05d6776	-3.4594398
52	0x401798fa	2.368712
53	0x40545f56	3.3183188
54	0x3f50a073	0.81494826
55	0xc0a1f369	-5.060963
56	0xc18254d8	-16.291428
57	0xbf1ad650	-0.60483265
58	0xc08bdfee	-4.371085
59	0xbf86380d	-1.0485855
60	0xbf1c0d90	-0.60958195
61	0x4007bab3	2.1207702
62	0xbeb8b9aa	-0.3607915
63	0xc1e1821a	-28.188526
64	0xbea6a5ab	-0.3254827
65	0xc03586f2	-2.8363614
66	0xbdc74c8c	-0.09731397
67	0xbf6e805c	-0.9316461
68	0xbeb3449a	-0.35013276
69	0x3f4ee290	0.80814457
70	0xbf7f0a8b	-0.9962546
71	0xbfc619fd	-1.5476681
72	0x3e918266	0.284198
73	0xc09c9d72	-4.8942194
74	0x3f8ebf15	1.1152064
75	0xc0cf3907	-6.4757113
76	0xbfd56db8	-1.6674109
77	0xbf2c1875	-0.6722482
78	0xbfef6186	-1.8701637
79	0x3dde563e	0.10856293
80	0x3f71fe79	0.9452892
81	0xc01286b4	-2.2894716
82	0x402be973	2.6861236
83	0x3f2ca70c	0.67442393
84	0x3f7504a8	0.9571023
85	0x3f028a63	0.5099241
86	0xbffecbe5	-1.9905974
87	0xbf18f05d	-0.59741765
88	0xc17be1be	-15.742613
89	0xbf798176	-0.97463167
90	0xc11aa31e	-9.664824
91	0x3e54b459	0.20771922
92	0xbf62c8db	-0.8858773
93	0xbfe7f58e	-1.8121812
94	0x3ec5dd98	0.38645625
95	0xc1867cab	-16.810873
96	0xbfe88beb	-1.81677
97	0xc0c8f305	-6.2796655
98	0xc030c76d	-2.762172
99	0xc053be2a	-3.3084817
100	0x3f15dc7b	0.5853955
101	0xc011aba1	-2.2761004
102	0x3f5e10f1	0.867446
103	0xc04581b5	-3.0860417
104	0xbf34d045	-0.70630294
105	0xc05220ce	-3.2832522
106	0x3e0aa672	0.13540056
107	0xc02b0f90	-2.6728249
108	0xc03fac12	-2.9948773
109	0xbf9ec10c	-1.2402663
110	0xc10f36f4	-8.950916
111	0xc132bcad	-11.171063
112	0xc02e0a14	-2.7193651
113	0xbfe093a6	-1.7545059
114	0xbe394bf6	-0.18095383
115	0xc0f8de02	-7.7771006
116	0xc043c91b	-3.0591495
117	0xbf8464e6	-1.0343292
118	0x3f586afd	0.8453825
119	0xbfc3b68a	-1.5290082
120	0xbfa3d8ca	-1.2800534
121	0xbf5211d0	-0.8205843
122	0xbfafc572	-1.373213
123	0xbf70c6fb	-0.9405362
124	0x3fe14f69	1.7602359
125	0xbfedf73a	-1.8591073
126	0xbfd87c3e	-1.6912916
127	0xbfd07792	-1.628649
128	0xbaa6006b	-0.001266492
129	0xc07738ba	-3.8628373
130	0x3f365057	0.7121634
131	0xbf6ca445	-0.92438155
132	0x3dcca58b	0.09992512
133	0xbdb6fb0b	-0.089346014
134	0xbfdda2d3	-1.7315315
135	0xc0892f94	-4.287058
136	0x3ee065e1	0.43827727
137	0xc04fe360	-3.2482529
138	0x3f184334	0.59477544
139	0xc06e2aa0	-3.7213516
140	0xbf9e224f	-1.235422
141	0xbe7edbea	-0.24888578
142	0xbeca1325	-0.3946773
143	0xbefcce64	-0.49376214
144	0xbe72f259	-0.23725261
145	0xbfadf93f	-1.3591689
146	0x40056730	2.084423
147	0x3f799251	0.97488886
148	0x3ee55a52	0.4479547
149	0x3ed6d2fe	0.4195785
150	0xbf82f6c2	-1.0231555
151	0xc0324e75	-2.7860386
152	0xc0edd077	-7.4316974
153	0xc007aab1	-2.1197932
154	0xc0887544	-4.2643147
155	0x3e66c019	0.22534217
156	0xbf4e890e	-0.8067788
157	0xbf598a74	-0.8497689
158	0xbee80ded	-0.45323125
159	0xc1863bbc	-16.779167
160	0x3f83e8fd	1.0305477
161	0xc0148c0d	-2.321048
162	0x3f49f611	0.7889109
163	0xc0417797	-3.0229242
164	0xbfd0aeeb	-1.6303381
165	0x3fa482ad	1.2852379
166	0x3ee80890	0.45319033
167	0xc01be50f	-2.4358556
168	0xbe575e92	-0.2103217
169	0xc08601d0	-4.1877213
170	0xbebe2108	-0.37134576
171	0xc0a42715	-5.1297708
172	0xc1338ca4	-11.221836
173	0x40abcf88	5.3690834
174	0x3ed1dacc	0.4098724
175	0x3f126894	0.57190824
176	0xbfe8b4a1	-1.8180124
177	0xc0b172ab	-5.5452476
178	0x40224611	2.5355265
179	0x3fc64f21	1.5492898
180	0x3f57a2d2	0.8423282
181	0x3ef2e5c9	0.47440937
182	0xbfb8afd3	-1.4428657
183	0xbf55b713	-0.83482474
184	0xc1bee6f3	-23.862768
185	0x3fab38bd	1.337669
186	0xc1397f35	-11.593556
187	0x3fc2efb8	1.5229406
188	0xbfd0e529	-1.6319934
189	0xbe59dbae	-0.21275207
190	0xbf6fe3ea	-0.93707144
191	0xc18b9e13	-17.452185
192	0xc09ad625	-4.8386407
193	0xc0c41455	-6.127482
194	0xc09d8e08	-4.923588
195	0xc08af939	-4.3429227
196	0xbfb121b7	-1.3838414
197	0xbfcc1098	-1.5942564
198	0x3fe4a89c	1.7863955
199	0xbf88bd5a	-1.0682786
200	0xc0a3cced	-5.1187654
201	0xc00b6625	-2.1781094
202	0xbebf7062	-0.3739043
203	0xbfe8e8c2	-1.8196032
204	0xc0740a7e	-3.8131404
205	0xbfea5031	-1.8305722
206	0xc156de32	-13.429247
207	0xc15f7507	-13.966071
208	0xc01af15c	-2.4209814
209	0xbff3f851	-1.9060155
210	0x3eb6d070	0.357059
211	0xc14ff4bb	-12.997249
212	0xbf59f46b	-0.8513858
213	0xbe27bdf6	-0.16381058
214	0xbf00c988	-0.5030751
215	0xc072d810	-3.7944374
216	0xbf56b007	-0.83862346
217	0xc083104c	-4.0957394
218	0xc01eb043	-2.4795082
219	0xbf7fc367	-0.99907535
220	0xc007bfb7	-2.1210763
221	0xbecb8be3	-0.39755163
222	0xbd8d0e6d	-0.06887517
223	0x3f8d139e	1.1021612
224	0xc018427d	-2.3790581
225	0xc072a803	-3.7915046
226	0xbfc25f2b	-1.5185293
227	0xc09f4bbf	-4.9779963
228	0x3f31f17c	0.695091
229	0xbfb61be7	-1.4227265
230	0xbe906d55	-0.28208414
231	0xbfdbdae6	-1.7176178
232	0x3f6dad21	0.928423
233	0xc0dafda8	-6.843464
234	0xbdf32b3b	-0.1187348
235	0xc12e68d5	-10.900594
236	0xc02a5946	-2.6616988
237	0xbdf6fa81	-0.120594986
238	0x3efc42d3	0.49269733
239	0x3f3d0c8b	0.73847264
240	0xc0d152bb	-6.541349
241	0xc137baec	-11.483135
242	0xbfa2a2ac	-1.2705894
243	0x3e274e98	0.16338575
244	0xbf57c464	-0.84284043
245	0xbf41516c	-0.75514865
246	0xbdcba42f	-0.09943425
247	0xc08028de	-4.0049887
248	0xc033fe97	-2.812414
249	0x40c65b7d	6.198668
250	0xc0c030b5	-6.0059457
251	0xc051690d	-3.2720368
252	0xc03ef450	-2.9836617
253	0xc06af6ed	-3.6713212
254	0xbfb6775c	-1.4255176
255	0xc13eb641	-11.919496

fc2.bias f4 [32]
0	0xbf3e1e05	-0.74264556
1	0x40d84103	6.757936
2	0xbef91f15	-0.48656526
3	0x3f0136d6	0.504743
4	0xbf57d82d	-0.84314233
5	0x3e9f3d7b	0.31101593
6	0xbf32f7bd	-0.6990927
7	0xbf8fc15c	-1.1230884
8	0x402aee6c	2.670802
9	0x412c9f6b	10.78892
10	0x3ee3caf4	0.44490778
11	0x3f123d86	0.5712513
12	0x3cf1cc1d	0.029516274
13	0x408a120e	4.314704
14	0xbea7e98f	-0.3279538
15	0x410235ba	8.138117
16	0xc02a709f	-2.6631238
17	0xbf6a3483	-0.91486377
18	0x4123e9ad	10.24455
19	0x40f86a8f	7.7630076
20	0x4105578f	8.333877
21	0x3f861a81	1.0476838
22	0xbe8b07e1	-0.2715445
23	0xbfc3fd13	-1.5311607
24	0x40c52acd	6.1614747
25	0xbfef7d4d	-1.8710114
26	0x3ea14649	0.31498936
27	0xbc2c4bdf	-0.010516136
28	0xbf93e08a	-1.1552899
29	0x40a24128	5.0704536
30	0x3f9c34ee	1.2203653
31	0x40788b62	3.8835073

fc3.weight f4 [25, 32]
0	0xc0626ab1	-3.537762
1	0x3fac5431	1.3463193
2	0xc0a56477	-5.168514
3	0xbfb72377	-1.4307698
4	0xc0435bfa	-3.0524888
5	0xbf96c9c1	-1.178032
6	0xbfceb04c	-1.6147552
7	0xc0469be9	-3.103266
8	0xbf88f3ad	-1.0699364
9	0x3fc8e137	1.569373
10	0x402e2db5	2.7215397
11	0x4016a5eb	2.3538768
12	0xbf37785c	-0.7166803
13	0x406e71d8	3.7256985
14	0xc0710388	-3.7658405
15	0x4005f084	2.092805
16	0xbf795717	-0.97398514
17	0xbfea0825	-1.8283736
18	0x40089182	2.133881
19	0x3fc00770	1.500227
20	0x3f5dd61e	0.8665484
21	0x408e45b4	4.4460087
22	0x404e03c4	3.2189798
23	0xbff578ce	-1.9177492
24	0x4040f693	3.0150497
25	0xc125b9b1	-10.357835
26	0x4026c266	2.6056151
27	0xc092560c	-4.573004
28	0xbf238e0d	-0.6388863
29	0x3fc29b6c	1.5203681
30	0xc04a19d6	-3.157827
31	0xbfe1c9ce	-1.7639711
32	0xc084fbaa	-4.1557207
33	0x3fc916d6	1.5710094
34	0xc0a1fe1e	-5.06227
35	0x3fcd3ced	1.6034218
36	0xc02caeb5	-2.6981633
37	0xbfa28ae1	-1.2698632
38	0xbe351847	-0.17685042
39	0xc092d1bf	-4.588104
40	0xc0200902	-2.5005498
41	0x3fd7a785	1.6847998
42	0x40650170	3.5782127
43	0x40099885	2.149934
44	0xbf55ac88	-0.83466387
45	0x402e1f70	2.7206688
46	0xc06c6983	-3.69394
47	0x3fe3d5ec	1.7799659
48	0xbfe99c5a	-1.825084
49	0xbfd91401	-1.695923
50	0x400cff6e	2.2030902
51	0x3f7c165e	0.9847163
52	0x3f4d6acc	0.80241084
53	0x40bc255a	5.8795595
54	0x4076204c	3.8457212
55	0xbfdd7e12	-1.7304099
56	0x40393b28	2.8942356
57	0xc11bc88f	-9.7364645
58	0x40447ebc	3.0702353
59	0xc017327a	-2.3624558
60	0xbf51604d	-0.8178757
61	0x3fc4bc49	1.536996
62	0xc01a31c1	-2.4092867
63	0xbf8f93cf	-1.1216983
64	0xc0716753	-3.7719314
65	0x3fba1925	1.4538924
66	0xc0a272db	-5.0765204
67	0x3f76fc95	0.9647916
68	0xc042b37e	-3.0422053
69	0xbf80db02	-1.0066836
70	0xc02e7fba	-2.7265458
71	0xc0711251	-3.766743
72	0xc038606e	-2.8808856
73	0x3fcc2ed3	1.595179
74	0x407af261	3.9210436
75	0x4055c67d	3.3402398
76	0xbf718767	-0.9434723
77	0x404d41bc	3.207137
78	0xc03eb166	-2.9795775
79	0x3fe54ccd	1.7914063
80	0xbfda52ae	-1.7056482
81	0xbfcace53	-1.5844215
82	0x400ff9be	2.249618
83	0x3f8da39e	1.1065557
84	0x3f76ebb3	0.964534
85	0x4097fac2	4.74936
86	0x4066f470	3.6086693
87	0xbfe4d993	-1.7878898
88	0x40340e42	2.8133702
89	0xc11c5d4a	-9.772776
90	0x4072291e	3.7837596
91	0xc0854844	-4.1650715
92	0xbf558eb4	-0.8342087
93	0x3fc62e86	1.5482948
94	0xc032cab9	-2.7936232
95	0xbf6aaffc	-0.9167478
96	0xc03d5a14	-2.958623
97	0x3fbf9810	1.4968281
98	0xc09e99a7	-4.9562564
99	0xbf94357f	-1.1578826
100	0xc044b4f4	-3.0735445
101	0xbf97794f	-1.1833895
102	0xc0220fc1	-2.5322115
103	0xc0350fea	-2.8290963
104	0xc0637ce2	-3.5544972
105	0x3fd09789	1.6296245
106	0x40789d63	3.8846061
107	0x40306fb2	2.7568173
108	0xbf811ff9	-1.0087882
109	0x405a8521	3.4143755
110	0xc0732c5f	-3.7995832
111	0x3fdc3426	1.7203414
112	0xbff3104f	-1.8989352
113	0xbfcc766c	-1.597364
114	0x4011e126	2.279367
115	0x3f7118cb	0.94178456
116	0x3f6fc8a9	0.9366556
117	0x408da881	4.4268193
118	0x407a3fc7	3.9101427
119	0xbfcfc878	-1.6233053
120	0x40395e18	2.896368
121	0xc118cc42	-9.549868
122	0x4055e00b	3.3417995
123	0xc0739395	-3.8058827
124	0xbf560d0e	-0.8361367
125	0x3fbecb9b	1.4905885
126	0xc040c19f	-3.0118177
127	0xbf2b827c	-0.6699598
128	0xc04e44e5	-3.222955
129	0x3fb95d21	1.4481546
130	0xc09eec06	-4.9663115
131	0xbed8f75d	-0.42376223
132	0xc0486e80	-3.1317444
133	0xbf8f0ab8	-1.1175146
134	0xc0456c05	-3.084718
135	0xc052a8e9	-3.2915595
136	0xc064d846	-3.5757003
137	0x3fcab8c0	1.5837631
138	0x406a06b6	3.6566596
139	0x404be011	3.185551
140	0xbf809ada	-1.0047257
141	0x406e3373	3.7218902
142	0xc07f318f	-3.9873998
143	0x3fda0cb2	1.7035124
144	0xc000a397	-2.0099847
145	0xbfbf40c8	-1.4941645
146	0x400f8014	2.2421923
147	0x3f86e124	1.0537457
148	0x3f784e8f	0.9699487
149	0x409531e7	4.6623416
150	0x4086d546	4.2135344
151	0xbfd4f3ea	-1.6636937
152	0x403eb7e7	2.9799745
153	0xc117e48d	-9.493299
154	0x4078c56d	3.88705
155	0xc0a8bf99	-5.2733884
156	0xbf6d79b4	-0.9276383
157	0x3fb5c7ee	1.4201639
158	0xc04f1aa8	-3.236002
159	0xbf1fe37d	-0.62456495
160	0xc07eed56	-3.9832358
161	0x3fbfd000	1.4985352
162	0xc099b0ed	-4.8028474
163	0xbed2d688	-0.411793
164	0xc05811b7	-3.3760812
165	0xbf84893a	-1.0354378
166	0xc03086e7	-2.7582338
167	0xc06769c4	-3.6158304
168	0xc049f75d	-3.1557229
169	0x3fba182e	1.4538629
170	0x40adf715	5.4364114
171	0x403187cd	2.7739136
172	0xbf5788c2	-0.8419305
173	0x4053b5c7	3.3079698
174	0xc10db323	-8.856235
175	0x3fe019e6	1.7507904
176	0xbfc06817	-1.5031766
177	0xbfc778c4	-1.558373
178	0x4010015d	2.2500832
179	0x3f8a187d	1.0788723
180	0x3f49708b	0.7868735
181	0x409e61aa	4.949422
182	0x4049281f	3.1430738
183	0xbfd96d4f	-1.6986483
184	0x4040ef47	3.0146043
185	0xc11e7e1d	-9.905789
186	0x404c1d98	3.1893063
187	0xbfd18ab5	-1.6370455
188	0xbf4634eb	-0.77424496
189	0x3fcf5888	1.6198893
190	0xc02e0977	-2.7193277
191	0xbf8cd0fe	-1.1001279
192	0xbf9bb86c	-1.2165656
193	0x3fb26950	1.3938389
194	0xc0a46b4f	-5.138099
195	0x3fc2669d	1.5187565
196	0xc04af8f1	-3.1714442
197	0xbf919019	-1.13721
198	0xbd5cb4dd	-0.053883422
199	0xc054d7d6	-3.3256736
200	0x3f46f733	0.77720946
201	0x3fcf4c2f	1.6195124
202	0x4100196c	8.0062065
203	0x41024900	8.142822
204	0xbf52d980	-0.8236313
205	0x40589f6e	3.3847308
206	0xc06725b7	-3.611677
207	0x3fe8971c	1.8171115
208	0xbfc07dc1	-1.5038377
209	0xbfea8287	-1.8321084
210	0x400e5937	2.2241952
211	0x3f96402e	1.1738336
212	0x3f79c357	0.9756369
213	0x40988ee5	4.767443
214	0x4097bfe6	4.742175
215	0xbfd4325a	-1.6577866
216	0x403c6772	2.9438138
217	0xc12bcb16	-10.737082
218	0x40908d5d	4.5172563
219	0xc06d17d8	-3.7045803
220	0xbf473022	-0.7780782
221	0x3fbd13f5	1.4771715
222	0xc037cc8a	-2.871859
223	0xbf96f19c	-1.1792483
224	0xc04e1a57	-3.2203577
225	0x3fb3af95	1.4037958
226	0xc0a18f6a	-5.0487566
227	0x3fdbc6ea	1.7170079
228	0xc04a102b	-3.1572368
229	0xbf89add6	-1.0756176
230	0xbfbeb118	-1.4897795
231	0xc024415e	-2.5664897
232	0xbf942a34	-1.1575379
233	0x3fd3e24b	1.6553434
234	0x409ce03a	4.9023714
235	0x40851614	4.158945
236	0xbf5f27b2	-0.87169945
237	0x40520ca1	3.2820208
238	0xc0834c48	-4.1030617
239	0x3fd5aa4a	1.6692593
240	0xc002645e	-2.037376
241	0xbfd43be0	-1.6580772
242	0x401347d1	2.3012583
243	0x3f8e7d11	1.1131917
244	0x3f6ad9de	0.9173869
245	0x40bb9cab	5.8628745
246	0x408b112f	4.3458476
247	0xbfd6e771	-1.678938
248	0x4038cf61	2.8876574
249	0xc1202b84	-10.010624
250	0x409d2977	4.9113116
251	0xc0871ca6	-4.222247
252	0xbf5af0d9	-0.85523754
253	0x3fb48efd	1.4106137
254	0xc03834a2	-2.8782125
255	0xbf6763b9	-0.9038654

fc3.bias f4 [25]
0	0x4178ad22	15.542269
1	0x41107171	9.027696
2	0x4119588a	9.584116
3	0x40a0b116	5.021617
4	0x40959b47	4.6752048
5	0x411c2d87	9.761115
6	0x418eb284	17.837166
7	0x415f5645	13.958562
8	0x40c9af41	6.3026433
9	0x408e464c	4.446081
10	0x40f74fc3	7.7284865
11	0x414c4ee3	12.769259
12	0x41b8c5c0	23.096558
13	0x4101d814	8.115253
14	0x40758231	3.8360713
15	0x40a8708d	5.263739
16	0x40e14d02	7.0406504
17	0x40e5d5d9	7.1823545
18	0x41a49b62	20.57587
19	0x3f4a4b34	0.79021
20	0x404084e5	3.0081112
21	0x40ad234d	5.410559
22	0xc30f46a9	-143.27602
23	0x3fc2f258	1.5230207
24	0xc09ce708	-4.903202

exp_avg f4 [32, 8]
0	0x41696c1b	14.588893
1	0x4193b916	18.465374
2	0xbd19a8f6	-0.03751465
3	0x3ccc7348	0.024957314
4	0x40bac689	5.8367352
5	0x40f7f2c2	7.7483835
6	0xbf01bf7d	-0.5068281
7	0x3e825616	0.25456303
8	0xc3b47e84	-360.9884
9	0xc40b122b	-556.2839
10	0xbcb60bdc	-0.022222452
11	0xbd8403d6	-0.06446044
12	0x408341e4	4.1017933
13	0xc2b03696	-88.10661
14	0x3ea0bc5f	0.31393716
15	0xbd0ede1f	-0.0348798
16	0x43e65bd4	460.7174
17	0x4198e2e9	19.110796
18	0xbda7db30	-0.081961036
19	0xbdb8f0db	-0.090303145
20	0x4245834b	49.378216
21	0xc1e3985c	-28.449394
22	0x3e0d0d4f	0.13774608
23	0xbdb7cb86	-0.08974366
24	0xc4341347	-720.3012
25	0xc498a1a9	-1221.0519
26	0xbd82c05a	-0.063843444
27	0xbccdb9c4	-0.025112994
28	0x4272bc1d	60.683704
29	0xc31ccb3c	-156.79388
30	0x3d52af61	0.051436786
31	0x3e1706f7	0.1474875
32	0x447bd5fc	1007.3435
33	0xc482370e	-1041.7205
34	0xbd2b7421	-0.041858796
35	0xbd66b9db	-0.05632959
36	0x439c636f	312.77682
37	0xc2ce58ad	-103.173195
38	0x3ecb7e75	0.39744917
39	0x3dceff8c	0.101073354
40	0x42d8d1b0	108.409546
41	0x42d27c85	105.2432
42	0x3d66afac	0.056319878
43	0x3b2b7247	0.0026160644
44	0xc0dc5335	-6.885157
45	0xc0eb9419	-7.3618283
46	0x3efb74a5	0.4911243
47	0xbe459052	-0.19293335
48	0x43265e5e	166.36862
49	0x41b60539	22.75255
50	0xbd9746f8	-0.07386583
51	0xbd980991	-0.074237
52	0x410fd451	8.989335
53	0xc1b1f59f	-22.244932
54	0xbc4b51b8	-0.01240962
55	0xbd97e6ce	-0.074170694
56	0xc329754a	-169.45816
57	0xc2a4b398	-82.35077
58	0xbcc10fe0	-0.02356714
59	0xbb451268	-0.0030070785
60	0xc1382cc8	-11.510933
61	0xc09dedea	-4.9352922
62	0xbd197b20	-0.037470937
63	0x3de09b86	0.10967164
64	0x43d49389	425.15262
65	0x432a57ec	170.34344
66	0x3cb9edb0	0.022696346
67	0xbc04a3d1	-0.0080956975
68	0x4260853b	56.130108
69	0x4220a4f5	40.16109
70	0x3e400d77	0.18755136
71	0xbdbc6412	-0.091987744
72	0x3f3a938e	0.728814
73	0xc4010229	-516.03375
74	0xbd3c06ff	-0.04590511
75	0xbd086df5	-0.03330799
76	0x4221a237	40.408413
77	0xc2b6962f	-91.29333
78	0xbe04ff19	-0.12987937
79	0xbce2c9e8	-0.027684167
80	0xc311472d	-145.27803
81	0x43601131	224.06715
82	0x3c902fd0	0.017600924
83	0x3d195a46	0.037439607
84	0xc273030a	-60.752968
85	0x423ba204	46.90822
86	0xbeab0d7a	-0.3340872
87	0xbd39beb3	-0.04534788
88	0x445785c2	862.08997
89	0xc40aca58	-555.1616
90	0xbdd4995e	-0.10380815
91	0xbdd6847a	-0.10474487
92	0x4338ee79	184.93153
93	0xc2cab7ba	-101.35884
94	0x3eaac859	0.33355978
95	0x3e789181	0.24274255
96	0x4319e82a	153.90689
97	0xc1a96f6b	-21.179403
98	0x3d5acde5	0.053419013
99	0xbb900394	-0.004394958
100	0x41cd8fe3	25.695257
101	0xc196ec42	-18.86536
102	0x3f173f96	0.590814
103	0xbe54fcac	-0.20799512
104	0x41a94349	21.157854
105	0x40ab4944	5.3526936
106	0x3e474826	0.19461116
107	0xbd572725	-0.052527566
108	0xc1872acc	-16.895897
109	0xc1a19527	-20.197828
110	0x40093be2	2.14428
111	0xbf80bc88	-1.0057535
112	0xc2932848	-73.578674
113	0xc19186e9	-18.190874
114	0x3b97d61c	0.004633678
115	0xbae3cbe5	-0.0017379491
116	0x3fe5f042	1.7963946
117	0x411ddfb8	9.867119
118	0xbd850cc6	-0.06496577
119	0xbc96e504	-0.01841975
120	0xc434f319	-723.7984
121	0x44112d22	580.7052
122	0x3da11fcd	0.07867394
123	0x3dd72a45	0.10506109
124	0xc34c1de7	-204.1168
125	0x428a4377	69.13177
126	0xbf0a4ca6	-0.54023206
127	0x3d1e7f9d	0.03869592
128	0x42c43713	98.10757
129	0xc20ab40a	-34.67582
130	0xbc04f1ff	-0.008114337
131	0x3c13521e	0.008991746
132	0x417e2b35	15.885549
133	0xc1317cb3	-11.092944
134	0xbd1d01b9	-0.03833172
135	0x3d240034	0.040039256
136	0xc2f089c8	-120.269104
137	0xc3e00461	-448.0342
138	0xbd1ebc06	-0.038753532
139	0xbd7bcea6	-0.061476372
140	0x426f0dea	59.763588
141	0xc23b5700	-46.83496
142	0x3ed3b942	0.41352278
143	0x3e3abdb4	0.18236428
144	0x438aeaf2	277.8355
145	0x43a7e653	335.7994
146	0x3e304549	0.1721393
147	0x3cbcf90a	0.02306797
148	0x410f2942	8.947573
149	0x4247669a	49.850197
150	0x3f83e485	1.0304114
151	0xbf51f888	-0.82019854
152	0xc31508a9	-149.03383
153	0x42a47dcd	82.245705
154	0x3acd949e	0.001568455
155	0x3c3c342a	0.011487046
156	0xc11b7327	-9.715613
157	0x4088cb8f	4.2748485
158	0xbda222ce	-0.07916795
159	0x3df12741	0.11775065
160	0xc3ca9abc	-405.20886
161	0x42b40c78	90.02435
162	0xbe2e8c18	-0.17045629
163	0x3c9b2fa4	0.018943615
164	0xc222915d	-40.641956
165	0x4187336a	16.900105
166	0xbfcb49d8	-1.588191
167	0x3f3fa3cd	0.74859315
168	0xc3d32231	-422.26712
169	0x4402e24b	523.5358
170	0x3d7e0b5d	0.062022556
171	0x3d83eda4	0.06441811
172	0xc2df6fe4	-111.71854
173	0x42debd54	111.36978
174	0xbedb6a43	-0.4285451
175	0xbdafad25	-0.085779466
176	0xc1e2bc3c	-28.341911
177	0xc10e6d74	-8.901722
178	0xbd29a76d	-0.041419435
179	0xbd3f7a4e	-0.0467475
180	0xc0d052e2	-6.5101175
181	0xc104eb3e	-8.307432
182	0x3db254a1	0.08707548
183	0x3dc027a5	0.093825616
184	0xc37af3ba	-250.95206
185	0xc435d72b	-727.362
186	0xbd78ac27	-0.060711052
187	0x3c9d1cd1	0.01917878
188	0x42891164	68.533966
189	0xc2cf7488	-103.7276
190	0xbecdff18	-0.40233684
191	0x3edda4b8	0.43289733
192	0xc489f126	-1103.5359
193	0xc4fe8b33	-2036.35
194	0x3e21c8b9	0.15799226
195	0xbe0c03a5	-0.13673265
196	0x43252cc6	165.1749
197	0xc35a241a	-218.14102
198	0x40202798	2.5024166
199	0x3ea8459e	0.32865614
200	0xc3dd6a9c	-442.8329
201	0x43836acf	262.83444
202	0xbc9bd642	-0.019023065
203	0x3d646901	0.055764202
204	0xc2a4dabe	-82.42723
205	0x41d980b0	27.187836
206	0xbf3be263	-0.73392314
207	0x3ec44b5d	0.38338748
208	0xc48b1b9b	-1112.8627
209	0xc45ece9e	-891.2284
210	0x3d7cdf38	0.061736315
211	0xbc68475b	-0.014177169
212	0xc211a7e8	-36.41397
213	0xc2423bb0	-48.55829
214	0x3f037160	0.5134487
215	0x3e9fe8c4	0.31232274
216	0x42bf366d	95.6063
217	0x41cc6aa4	25.55207
218	0x3d4cb14f	0.049973782
219	0xbc24f13d	-0.010067281
220	0x409e6b5d	4.950606
221	0xc05f8578	-3.4925213
222	0x3f1dac4d	0.61591035
223	0xbe8f7b65	-0.2802383
224	0xc1bdf2eb	-23.743612
225	0xbfab6b56	-1.3392131
226	0xbb28a381	-0.0025732222
227	0xba4327ef	-0.000744461
228	0xbfa22c40	-1.2669754
229	0x40d6c8dc	6.712019
230	0xbd8ba715	-0.06818978
231	0x3b9768f1	0.0046206643
232	0x42d791d9	107.78486
233	0x40ed710a	7.4200487
234	0xbd182382	-0.037143238
235	0xbcf1f71f	-0.029536782
236	0x415bd089	13.738412
237	0x3f3aad8e	0.72921073
238	0xbdde15cc	-0.10844001
239	0x3bb69488	0.0055719055
240	0x42f52d25	122.58817
241	0xc3aca4cf	-345.28757
242	0x3c7065e3	0.014672729
243	0xbd4ef120	-0.050522923
244	0x42d85655	108.16862
245	0xc271cd2b	-60.45036
246	0x3f1fea03	0.6246645
247	0xbdf2365c	-0.118267745
248	0x451f2250	2546.1445
249	0xc514d0d4	-2381.0518
250	0xbf48a3a5	-0.783747
251	0xbf11c7ed	-0.5694569
252	0x43bf1c6c	382.22205
253	0xc41189b5	-582.1517
254	0x3eaadf20	0.33373356
255	0x3f4f3e31	0.8095427
